<?xml version="1.0"?>
<net name="torch_jit" version="11">
	<layers>
		<layer id="5" name="tokens" type="Parameter" version="opset1">
			<data shape="?,?" element_type="i64" />
			<rt_info>
				<attribute name="old_api_map_element_type" version="0" value="i32" />
			</rt_info>
			<output>
				<port id="0" precision="I64" names="tokens">
					<dim>-1</dim>
					<dim>-1</dim>
				</port>
			</output>
		</layer>
		<layer id="4" name="in_n_layer_self_k_cache" type="Parameter" version="opset1">
			<data shape="6,?,448,512" element_type="f32" />
			<output>
				<port id="0" precision="FP32" names="in_n_layer_self_k_cache">
					<dim>6</dim>
					<dim>-1</dim>
					<dim>448</dim>
					<dim>512</dim>
				</port>
			</output>
		</layer>
		<layer id="3" name="in_n_layer_self_v_cache" type="Parameter" version="opset1">
			<data shape="6,?,448,512" element_type="f32" />
			<output>
				<port id="0" precision="FP32" names="in_n_layer_self_v_cache">
					<dim>6</dim>
					<dim>-1</dim>
					<dim>448</dim>
					<dim>512</dim>
				</port>
			</output>
		</layer>
		<layer id="2" name="n_layer_cross_k" type="Parameter" version="opset1">
			<data shape="6,?,?,512" element_type="f32" />
			<output>
				<port id="0" precision="FP32" names="n_layer_cross_k">
					<dim>6</dim>
					<dim>-1</dim>
					<dim>-1</dim>
					<dim>512</dim>
				</port>
			</output>
		</layer>
		<layer id="1" name="n_layer_cross_v" type="Parameter" version="opset1">
			<data shape="6,?,?,512" element_type="f32" />
			<output>
				<port id="0" precision="FP32" names="n_layer_cross_v">
					<dim>6</dim>
					<dim>-1</dim>
					<dim>-1</dim>
					<dim>512</dim>
				</port>
			</output>
		</layer>
		<layer id="0" name="offset" type="Parameter" version="opset1">
			<data shape="1" element_type="i64" />
			<rt_info>
				<attribute name="old_api_map_element_type" version="0" value="i32" />
			</rt_info>
			<output>
				<port id="0" precision="I64" names="offset">
					<dim>1</dim>
				</port>
			</output>
		</layer>
		<layer id="6" name="/Constant_174" type="Const" version="opset1">
			<data element_type="i64" shape="1, 1, 1, 1" offset="0" size="8" />
			<output>
				<port id="0" precision="I64" names="/Constant_174_output_0">
					<dim>1</dim>
					<dim>1</dim>
					<dim>1</dim>
					<dim>1</dim>
				</port>
			</output>
		</layer>
		<layer id="7" name="/Constant_177" type="Const" version="opset1">
			<data element_type="i64" shape="1, 1, 1, 1" offset="0" size="8" />
			<output>
				<port id="0" precision="I64" names="/Constant_177_output_0">
					<dim>1</dim>
					<dim>1</dim>
					<dim>1</dim>
					<dim>1</dim>
				</port>
			</output>
		</layer>
		<layer id="8" name="/Constant_162" type="Const" version="opset1">
			<data element_type="i64" shape="" offset="0" size="8" />
			<output>
				<port id="0" precision="I64" names="/Constant_162_output_0" />
			</output>
		</layer>
		<layer id="9" name="/Shape_52" type="ShapeOf" version="opset3">
			<data output_type="i64" />
			<input>
				<port id="0" precision="FP32">
					<dim>6</dim>
					<dim>-1</dim>
					<dim>448</dim>
					<dim>512</dim>
				</port>
			</input>
			<output>
				<port id="1" precision="I64" names="/Shape_52_output_0,/Shape_53_output_0,/Shape_54_output_0,/Shape_60_output_0">
					<dim>4</dim>
				</port>
			</output>
		</layer>
		<layer id="10" name="/Constant_161" type="Const" version="opset1">
			<data element_type="i64" shape="" offset="8" size="8" />
			<output>
				<port id="0" precision="I64" names="/Constant_161_output_0" />
			</output>
		</layer>
		<layer id="11" name="Constant_1027" type="Const" version="opset1">
			<data element_type="i64" shape="" offset="0" size="8" />
			<output>
				<port id="0" precision="I64" />
			</output>
		</layer>
		<layer id="12" name="/Gather_42" type="Gather" version="opset8">
			<data batch_dims="0" />
			<input>
				<port id="0" precision="I64">
					<dim>4</dim>
				</port>
				<port id="1" precision="I64" />
				<port id="2" precision="I64" />
			</input>
			<output>
				<port id="3" precision="I64" names="/Cast_20_output_0,/Gather_42_output_0" />
			</output>
		</layer>
		<layer id="13" name="/Constant_163" type="Const" version="opset1">
			<data element_type="i64" shape="" offset="8" size="8" />
			<output>
				<port id="0" precision="I64" names="/Constant_163_output_0" />
			</output>
		</layer>
		<layer id="14" name="/Range_9" type="Range" version="opset4">
			<data output_type="i64" />
			<input>
				<port id="0" precision="I64" />
				<port id="1" precision="I64" />
				<port id="2" precision="I64" />
			</input>
			<output>
				<port id="3" precision="I64" names="/Range_9_output_0">
					<dim>-1</dim>
				</port>
			</output>
		</layer>
		<layer id="15" name="/Constant_175" type="Const" version="opset1">
			<data element_type="i64" shape="3" offset="16" size="24" />
			<rt_info>
				<attribute name="precise" version="0" />
			</rt_info>
			<output>
				<port id="0" precision="I64" names="/Constant_175_output_0">
					<dim>3</dim>
				</port>
			</output>
		</layer>
		<layer id="16" name="/Reshape_17" type="Reshape" version="opset1">
			<data special_zero="true" />
			<input>
				<port id="0" precision="I64">
					<dim>-1</dim>
				</port>
				<port id="1" precision="I64">
					<dim>3</dim>
				</port>
			</input>
			<output>
				<port id="2" precision="I64" names="/Reshape_17_output_0">
					<dim>-1</dim>
					<dim>1</dim>
					<dim>1</dim>
				</port>
			</output>
		</layer>
		<layer id="17" name="/Add_17" type="Add" version="opset1">
			<data auto_broadcast="numpy" />
			<input>
				<port id="0" precision="I64">
					<dim>1</dim>
					<dim>1</dim>
					<dim>1</dim>
					<dim>1</dim>
				</port>
				<port id="1" precision="I64">
					<dim>-1</dim>
					<dim>1</dim>
					<dim>1</dim>
				</port>
			</input>
			<output>
				<port id="2" precision="I64" names="/Add_17_output_0">
					<dim>1</dim>
					<dim>-1</dim>
					<dim>1</dim>
					<dim>1</dim>
				</port>
			</output>
		</layer>
		<layer id="18" name="/Constant_165" type="Const" version="opset1">
			<data element_type="i64" shape="" offset="0" size="8" />
			<output>
				<port id="0" precision="I64" names="/Constant_165_output_0" />
			</output>
		</layer>
		<layer id="19" name="/Constant_164" type="Const" version="opset1">
			<data element_type="i64" shape="" offset="40" size="8" />
			<output>
				<port id="0" precision="I64" names="/Constant_164_output_0" />
			</output>
		</layer>
		<layer id="20" name="Constant_1041" type="Const" version="opset1">
			<data element_type="i64" shape="" offset="0" size="8" />
			<output>
				<port id="0" precision="I64" />
			</output>
		</layer>
		<layer id="21" name="/Gather_43" type="Gather" version="opset8">
			<data batch_dims="0" />
			<input>
				<port id="0" precision="I64">
					<dim>4</dim>
				</port>
				<port id="1" precision="I64" />
				<port id="2" precision="I64" />
			</input>
			<output>
				<port id="3" precision="I64" names="/Cast_21_output_0,/Gather_43_output_0" />
			</output>
		</layer>
		<layer id="22" name="/Constant_166" type="Const" version="opset1">
			<data element_type="i64" shape="" offset="8" size="8" />
			<output>
				<port id="0" precision="I64" names="/Constant_166_output_0" />
			</output>
		</layer>
		<layer id="23" name="/Range_10" type="Range" version="opset4">
			<data output_type="i64" />
			<input>
				<port id="0" precision="I64" />
				<port id="1" precision="I64" />
				<port id="2" precision="I64" />
			</input>
			<output>
				<port id="3" precision="I64" names="/Range_10_output_0">
					<dim>448</dim>
				</port>
			</output>
		</layer>
		<layer id="24" name="/Constant_167" type="Const" version="opset1">
			<data element_type="i64" shape="1" offset="0" size="8" />
			<rt_info>
				<attribute name="precise" version="0" />
			</rt_info>
			<output>
				<port id="0" precision="I64" names="/Constant_167_output_0">
					<dim>1</dim>
				</port>
			</output>
		</layer>
		<layer id="25" name="Constant_14977" type="Const" version="opset1">
			<data element_type="i64" shape="1" offset="0" size="8" />
			<rt_info>
				<attribute name="precise" version="0" />
			</rt_info>
			<output>
				<port id="0" precision="I64">
					<dim>1</dim>
				</port>
			</output>
		</layer>
		<layer id="26" name="Constant_140" type="Const" version="opset1">
			<data element_type="i64" shape="" offset="0" size="8" />
			<rt_info>
				<attribute name="precise" version="0" />
			</rt_info>
			<output>
				<port id="0" precision="I64" />
			</output>
		</layer>
		<layer id="27" name="/Gather" type="Gather" version="opset8">
			<data batch_dims="0" />
			<input>
				<port id="0" precision="I64">
					<dim>1</dim>
				</port>
				<port id="1" precision="I64">
					<dim>1</dim>
				</port>
				<port id="2" precision="I64" />
			</input>
			<output>
				<port id="3" precision="I64" names="/Gather_117_output_0,/Gather_123_output_0,/Gather_129_output_0,/Gather_132_output_0,/Gather_159_output_0,/Gather_165_output_0,/Gather_171_output_0,/Gather_174_output_0,/Gather_1_output_0,/Gather_201_output_0,/Gather_207_output_0,/Gather_213_output_0,/Gather_216_output_0,/Gather_243_output_0,/Gather_249_output_0,/Gather_33_output_0,/Gather_39_output_0,/Gather_3_output_0,/Gather_45_output_0,/Gather_48_output_0,/Gather_6_output_0,/Gather_75_output_0,/Gather_81_output_0,/Gather_87_output_0,/Gather_90_output_0,/Gather_output_0,/Unsqueeze_output_0">
					<dim>1</dim>
				</port>
			</output>
		</layer>
		<layer id="28" name="/Shape" type="ShapeOf" version="opset3">
			<data output_type="i64" />
			<input>
				<port id="0" precision="I64">
					<dim>-1</dim>
					<dim>-1</dim>
				</port>
			</input>
			<output>
				<port id="1" precision="I64" names="/Shape_110_output_0,/Shape_121_output_0,/Shape_122_output_0,/Shape_159_output_0,/Shape_170_output_0,/Shape_181_output_0,/Shape_182_output_0,/Shape_1_output_0,/Shape_219_output_0,/Shape_230_output_0,/Shape_241_output_0,/Shape_242_output_0,/Shape_279_output_0,/Shape_290_output_0,/Shape_2_output_0,/Shape_301_output_0,/Shape_302_output_0,/Shape_339_output_0,/Shape_350_output_0,/Shape_39_output_0,/Shape_50_output_0,/Shape_61_output_0,/Shape_62_output_0,/Shape_99_output_0,/Shape_output_0">
					<dim>2</dim>
				</port>
			</output>
		</layer>
		<layer id="29" name="Constant_14980" type="Const" version="opset1">
			<data element_type="i64" shape="1" offset="8" size="8" />
			<rt_info>
				<attribute name="precise" version="0" />
			</rt_info>
			<output>
				<port id="0" precision="I64">
					<dim>1</dim>
				</port>
			</output>
		</layer>
		<layer id="30" name="Constant_147" type="Const" version="opset1">
			<data element_type="i64" shape="" offset="0" size="8" />
			<rt_info>
				<attribute name="precise" version="0" />
			</rt_info>
			<output>
				<port id="0" precision="I64" />
			</output>
		</layer>
		<layer id="31" name="/Gather_2" type="Gather" version="opset8">
			<data batch_dims="0" />
			<input>
				<port id="0" precision="I64">
					<dim>2</dim>
				</port>
				<port id="1" precision="I64">
					<dim>1</dim>
				</port>
				<port id="2" precision="I64" />
			</input>
			<output>
				<port id="3" precision="I64" names="/Gather_118_output_0,/Gather_124_output_0,/Gather_130_output_0,/Gather_133_output_0,/Gather_160_output_0,/Gather_166_output_0,/Gather_172_output_0,/Gather_175_output_0,/Gather_202_output_0,/Gather_208_output_0,/Gather_214_output_0,/Gather_217_output_0,/Gather_244_output_0,/Gather_250_output_0,/Gather_2_output_0,/Gather_34_output_0,/Gather_40_output_0,/Gather_46_output_0,/Gather_49_output_0,/Gather_4_output_0,/Gather_76_output_0,/Gather_7_output_0,/Gather_82_output_0,/Gather_88_output_0,/Gather_91_output_0">
					<dim>1</dim>
				</port>
			</output>
		</layer>
		<layer id="32" name="/Add" type="Add" version="opset1">
			<data auto_broadcast="numpy" />
			<input>
				<port id="0" precision="I64">
					<dim>1</dim>
				</port>
				<port id="1" precision="I64">
					<dim>1</dim>
				</port>
			</input>
			<output>
				<port id="2" precision="I64" names="/Add_102_output_0,/Add_106_output_0,/Add_12_output_0,/Add_16_output_0,/Add_20_output_0,/Add_21_output_0,/Add_2_output_0,/Add_30_output_0,/Add_34_output_0,/Add_38_output_0,/Add_39_output_0,/Add_3_output_0,/Add_48_output_0,/Add_52_output_0,/Add_56_output_0,/Add_57_output_0,/Add_66_output_0,/Add_70_output_0,/Add_74_output_0,/Add_75_output_0,/Add_84_output_0,/Add_88_output_0,/Add_92_output_0,/Add_93_output_0,/Add_output_0,/Unsqueeze_104_output_0,/Unsqueeze_105_output_0,/Unsqueeze_110_output_0,/Unsqueeze_111_output_0,/Unsqueeze_116_output_0,/Unsqueeze_117_output_0,/Unsqueeze_142_output_0,/Unsqueeze_143_output_0,/Unsqueeze_148_output_0,/Unsqueeze_149_output_0,/Unsqueeze_154_output_0,/Unsqueeze_155_output_0,/Unsqueeze_180_output_0,/Unsqueeze_181_output_0,/Unsqueeze_186_output_0,/Unsqueeze_187_output_0,/Unsqueeze_192_output_0,/Unsqueeze_193_output_0,/Unsqueeze_1_output_0,/Unsqueeze_218_output_0,/Unsqueeze_219_output_0,/Unsqueeze_224_output_0,/Unsqueeze_225_output_0,/Unsqueeze_28_output_0,/Unsqueeze_29_output_0,/Unsqueeze_2_output_0,/Unsqueeze_34_output_0,/Unsqueeze_35_output_0,/Unsqueeze_3_output_0,/Unsqueeze_40_output_0,/Unsqueeze_41_output_0,/Unsqueeze_66_output_0,/Unsqueeze_67_output_0,/Unsqueeze_72_output_0,/Unsqueeze_73_output_0,/Unsqueeze_78_output_0,/Unsqueeze_79_output_0">
					<dim>1</dim>
				</port>
			</output>
		</layer>
		<layer id="33" name="/Constant_170" type="Const" version="opset1">
			<data element_type="i64" shape="1" offset="8" size="8" />
			<rt_info>
				<attribute name="precise" version="0" />
			</rt_info>
			<output>
				<port id="0" precision="I64" names="/Constant_170_output_0">
					<dim>1</dim>
				</port>
			</output>
		</layer>
		<layer id="34" name="/Slice_17" type="StridedSlice" version="opset1">
			<data begin_mask="0" end_mask="0" new_axis_mask="" shrink_axis_mask="" ellipsis_mask="" />
			<input>
				<port id="0" precision="I64">
					<dim>448</dim>
				</port>
				<port id="1" precision="I64">
					<dim>1</dim>
				</port>
				<port id="2" precision="I64">
					<dim>1</dim>
				</port>
				<port id="3" precision="I64">
					<dim>1</dim>
				</port>
			</input>
			<output>
				<port id="4" precision="I64" names="/Slice_17_output_0">
					<dim>-1</dim>
				</port>
			</output>
		</layer>
		<layer id="35" name="/Constant_176" type="Const" version="opset1">
			<data element_type="i64" shape="2" offset="48" size="16" />
			<rt_info>
				<attribute name="precise" version="0" />
			</rt_info>
			<output>
				<port id="0" precision="I64" names="/Constant_176_output_0">
					<dim>2</dim>
				</port>
			</output>
		</layer>
		<layer id="36" name="/Reshape_18" type="Reshape" version="opset1">
			<data special_zero="true" />
			<input>
				<port id="0" precision="I64">
					<dim>-1</dim>
				</port>
				<port id="1" precision="I64">
					<dim>2</dim>
				</port>
			</input>
			<output>
				<port id="2" precision="I64" names="/Reshape_18_output_0">
					<dim>-1</dim>
					<dim>1</dim>
				</port>
			</output>
		</layer>
		<layer id="37" name="/Add_18" type="Add" version="opset1">
			<data auto_broadcast="numpy" />
			<input>
				<port id="0" precision="I64">
					<dim>1</dim>
					<dim>-1</dim>
					<dim>1</dim>
					<dim>1</dim>
				</port>
				<port id="1" precision="I64">
					<dim>-1</dim>
					<dim>1</dim>
				</port>
			</input>
			<output>
				<port id="2" precision="I64" names="/Add_18_output_0">
					<dim>1</dim>
					<dim>-1</dim>
					<dim>-1</dim>
					<dim>1</dim>
				</port>
			</output>
		</layer>
		<layer id="38" name="/Constant_172" type="Const" version="opset1">
			<data element_type="i64" shape="" offset="0" size="8" />
			<output>
				<port id="0" precision="I64" names="/Constant_172_output_0" />
			</output>
		</layer>
		<layer id="39" name="/Constant_171" type="Const" version="opset1">
			<data element_type="i64" shape="" offset="64" size="8" />
			<output>
				<port id="0" precision="I64" names="/Constant_171_output_0" />
			</output>
		</layer>
		<layer id="40" name="Constant_1062" type="Const" version="opset1">
			<data element_type="i64" shape="" offset="0" size="8" />
			<output>
				<port id="0" precision="I64" />
			</output>
		</layer>
		<layer id="41" name="/Gather_44" type="Gather" version="opset8">
			<data batch_dims="0" />
			<input>
				<port id="0" precision="I64">
					<dim>4</dim>
				</port>
				<port id="1" precision="I64" />
				<port id="2" precision="I64" />
			</input>
			<output>
				<port id="3" precision="I64" names="/Cast_22_output_0,/Gather_44_output_0" />
			</output>
		</layer>
		<layer id="42" name="/Constant_173" type="Const" version="opset1">
			<data element_type="i64" shape="" offset="8" size="8" />
			<output>
				<port id="0" precision="I64" names="/Constant_173_output_0" />
			</output>
		</layer>
		<layer id="43" name="/Range_11" type="Range" version="opset4">
			<data output_type="i64" />
			<input>
				<port id="0" precision="I64" />
				<port id="1" precision="I64" />
				<port id="2" precision="I64" />
			</input>
			<output>
				<port id="3" precision="I64" names="/Range_11_output_0">
					<dim>512</dim>
				</port>
			</output>
		</layer>
		<layer id="44" name="/Add_19" type="Add" version="opset1">
			<data auto_broadcast="numpy" />
			<input>
				<port id="0" precision="I64">
					<dim>1</dim>
					<dim>-1</dim>
					<dim>-1</dim>
					<dim>1</dim>
				</port>
				<port id="1" precision="I64">
					<dim>512</dim>
				</port>
			</input>
			<output>
				<port id="2" precision="I64" names="/Add_19_output_0">
					<dim>1</dim>
					<dim>-1</dim>
					<dim>-1</dim>
					<dim>512</dim>
				</port>
			</output>
		</layer>
		<layer id="45" name="/Shape_55" type="ShapeOf" version="opset3">
			<data output_type="i64" />
			<input>
				<port id="0" precision="I64">
					<dim>1</dim>
					<dim>-1</dim>
					<dim>-1</dim>
					<dim>512</dim>
				</port>
			</input>
			<output>
				<port id="1" precision="I64" names="/Concat_15_output_0,/Shape_55_output_0">
					<dim>4</dim>
				</port>
			</output>
		</layer>
		<layer id="46" name="/Mul_14" type="Const" version="opset1">
			<data element_type="i64" shape="4" offset="72" size="32" />
			<rt_info>
				<attribute name="precise" version="0" />
			</rt_info>
			<output>
				<port id="0" precision="I64" names="/Mul_14_output_0,/Mul_15_output_0,/Mul_16_output_0,/Mul_17_output_0">
					<dim>4</dim>
				</port>
			</output>
		</layer>
		<layer id="47" name="/Equal_10" type="Equal" version="opset1">
			<data auto_broadcast="numpy" />
			<input>
				<port id="0" precision="I64">
					<dim>4</dim>
				</port>
				<port id="1" precision="I64">
					<dim>4</dim>
				</port>
			</input>
			<output>
				<port id="2" precision="BOOL" names="/Equal_10_output_0,/Equal_11_output_0,/Equal_12_output_0,/Equal_13_output_0">
					<dim>4</dim>
				</port>
			</output>
		</layer>
		<layer id="48" name="/ConstantOfShape_10" type="Const" version="opset1">
			<data element_type="i64" shape="4" offset="104" size="32" />
			<rt_info>
				<attribute name="precise" version="0" />
			</rt_info>
			<output>
				<port id="0" precision="I64" names="/ConstantOfShape_10_output_0,/ConstantOfShape_11_output_0,/ConstantOfShape_12_output_0,/ConstantOfShape_13_output_0">
					<dim>4</dim>
				</port>
			</output>
		</layer>
		<layer id="49" name="/Where_10" type="Select" version="opset1">
			<data auto_broadcast="numpy" />
			<input>
				<port id="0" precision="BOOL">
					<dim>4</dim>
				</port>
				<port id="1" precision="I64">
					<dim>4</dim>
				</port>
				<port id="2" precision="I64">
					<dim>4</dim>
				</port>
			</input>
			<output>
				<port id="3" precision="I64" names="/Where_10_output_0,/Where_11_output_0,/Where_12_output_0,/Where_13_output_0">
					<dim>4</dim>
				</port>
			</output>
		</layer>
		<layer id="50" name="/Expand_14" type="Broadcast" version="opset3">
			<data mode="bidirectional" />
			<input>
				<port id="0" precision="I64">
					<dim>1</dim>
					<dim>1</dim>
					<dim>1</dim>
					<dim>1</dim>
				</port>
				<port id="1" precision="I64">
					<dim>4</dim>
				</port>
			</input>
			<output>
				<port id="2" precision="I64" names="/Expand_14_output_0">
					<dim>1</dim>
					<dim>-1</dim>
					<dim>-1</dim>
					<dim>512</dim>
				</port>
			</output>
		</layer>
		<layer id="51" name="/Constant_179" type="Const" version="opset1">
			<data element_type="i64" shape="1" offset="136" size="8" />
			<output>
				<port id="0" precision="I64" names="/Constant_179_output_0">
					<dim>1</dim>
				</port>
			</output>
		</layer>
		<layer id="52" name="/Unsqueeze_36" type="Unsqueeze" version="opset1">
			<input>
				<port id="0" precision="I64">
					<dim>1</dim>
					<dim>-1</dim>
					<dim>-1</dim>
					<dim>512</dim>
				</port>
				<port id="1" precision="I64">
					<dim>1</dim>
				</port>
			</input>
			<output>
				<port id="2" precision="I64" names="/Unsqueeze_36_output_0">
					<dim>1</dim>
					<dim>-1</dim>
					<dim>-1</dim>
					<dim>512</dim>
					<dim>1</dim>
				</port>
			</output>
		</layer>
		<layer id="53" name="/Expand_15" type="Broadcast" version="opset3">
			<data mode="bidirectional" />
			<input>
				<port id="0" precision="I64">
					<dim>-1</dim>
					<dim>1</dim>
					<dim>1</dim>
				</port>
				<port id="1" precision="I64">
					<dim>4</dim>
				</port>
			</input>
			<output>
				<port id="2" precision="I64" names="/Expand_15_output_0">
					<dim>1</dim>
					<dim>-1</dim>
					<dim>-1</dim>
					<dim>512</dim>
				</port>
			</output>
		</layer>
		<layer id="54" name="/Constant_181" type="Const" version="opset1">
			<data element_type="i64" shape="1" offset="136" size="8" />
			<output>
				<port id="0" precision="I64" names="/Constant_181_output_0">
					<dim>1</dim>
				</port>
			</output>
		</layer>
		<layer id="55" name="/Unsqueeze_37" type="Unsqueeze" version="opset1">
			<input>
				<port id="0" precision="I64">
					<dim>1</dim>
					<dim>-1</dim>
					<dim>-1</dim>
					<dim>512</dim>
				</port>
				<port id="1" precision="I64">
					<dim>1</dim>
				</port>
			</input>
			<output>
				<port id="2" precision="I64" names="/Unsqueeze_37_output_0">
					<dim>1</dim>
					<dim>-1</dim>
					<dim>-1</dim>
					<dim>512</dim>
					<dim>1</dim>
				</port>
			</output>
		</layer>
		<layer id="56" name="/Expand_16" type="Broadcast" version="opset3">
			<data mode="bidirectional" />
			<input>
				<port id="0" precision="I64">
					<dim>-1</dim>
					<dim>1</dim>
				</port>
				<port id="1" precision="I64">
					<dim>4</dim>
				</port>
			</input>
			<output>
				<port id="2" precision="I64" names="/Expand_16_output_0">
					<dim>1</dim>
					<dim>-1</dim>
					<dim>-1</dim>
					<dim>512</dim>
				</port>
			</output>
		</layer>
		<layer id="57" name="/Constant_183" type="Const" version="opset1">
			<data element_type="i64" shape="1" offset="136" size="8" />
			<output>
				<port id="0" precision="I64" names="/Constant_183_output_0">
					<dim>1</dim>
				</port>
			</output>
		</layer>
		<layer id="58" name="/Unsqueeze_38" type="Unsqueeze" version="opset1">
			<input>
				<port id="0" precision="I64">
					<dim>1</dim>
					<dim>-1</dim>
					<dim>-1</dim>
					<dim>512</dim>
				</port>
				<port id="1" precision="I64">
					<dim>1</dim>
				</port>
			</input>
			<output>
				<port id="2" precision="I64" names="/Unsqueeze_38_output_0">
					<dim>1</dim>
					<dim>-1</dim>
					<dim>-1</dim>
					<dim>512</dim>
					<dim>1</dim>
				</port>
			</output>
		</layer>
		<layer id="59" name="/Expand_17" type="Broadcast" version="opset3">
			<data mode="bidirectional" />
			<input>
				<port id="0" precision="I64">
					<dim>512</dim>
				</port>
				<port id="1" precision="I64">
					<dim>4</dim>
				</port>
			</input>
			<output>
				<port id="2" precision="I64" names="/Expand_17_output_0">
					<dim>1</dim>
					<dim>-1</dim>
					<dim>-1</dim>
					<dim>512</dim>
				</port>
			</output>
		</layer>
		<layer id="60" name="/Constant_185" type="Const" version="opset1">
			<data element_type="i64" shape="1" offset="136" size="8" />
			<output>
				<port id="0" precision="I64" names="/Constant_185_output_0">
					<dim>1</dim>
				</port>
			</output>
		</layer>
		<layer id="61" name="/Unsqueeze_39" type="Unsqueeze" version="opset1">
			<input>
				<port id="0" precision="I64">
					<dim>1</dim>
					<dim>-1</dim>
					<dim>-1</dim>
					<dim>512</dim>
				</port>
				<port id="1" precision="I64">
					<dim>1</dim>
				</port>
			</input>
			<output>
				<port id="2" precision="I64" names="/Unsqueeze_39_output_0">
					<dim>1</dim>
					<dim>-1</dim>
					<dim>-1</dim>
					<dim>512</dim>
					<dim>1</dim>
				</port>
			</output>
		</layer>
		<layer id="62" name="/Concat_14" type="Concat" version="opset1">
			<data axis="-1" />
			<input>
				<port id="0" precision="I64">
					<dim>1</dim>
					<dim>-1</dim>
					<dim>-1</dim>
					<dim>512</dim>
					<dim>1</dim>
				</port>
				<port id="1" precision="I64">
					<dim>1</dim>
					<dim>-1</dim>
					<dim>-1</dim>
					<dim>512</dim>
					<dim>1</dim>
				</port>
				<port id="2" precision="I64">
					<dim>1</dim>
					<dim>-1</dim>
					<dim>-1</dim>
					<dim>512</dim>
					<dim>1</dim>
				</port>
				<port id="3" precision="I64">
					<dim>1</dim>
					<dim>-1</dim>
					<dim>-1</dim>
					<dim>512</dim>
					<dim>1</dim>
				</port>
			</input>
			<output>
				<port id="4" precision="I64" names="/Concat_14_output_0">
					<dim>1</dim>
					<dim>-1</dim>
					<dim>-1</dim>
					<dim>512</dim>
					<dim>4</dim>
				</port>
			</output>
		</layer>
		<layer id="63" name="/Constant" type="Const" version="opset1">
			<data element_type="i64" shape="" offset="0" size="8" />
			<output>
				<port id="0" precision="I64" names="/Constant_output_0" />
			</output>
		</layer>
		<layer id="64" name="Constant_182" type="Const" version="opset1">
			<data element_type="i64" shape="" offset="0" size="8" />
			<output>
				<port id="0" precision="I64" />
			</output>
		</layer>
		<layer id="65" name="/Gather_8" type="Gather" version="opset8">
			<data batch_dims="0" />
			<input>
				<port id="0" precision="FP32">
					<dim>6</dim>
					<dim>-1</dim>
					<dim>448</dim>
					<dim>512</dim>
				</port>
				<port id="1" precision="I64" />
				<port id="2" precision="I64" />
			</input>
			<output>
				<port id="3" precision="FP32" names="/Gather_41_output_0,/Gather_8_output_0">
					<dim>-1</dim>
					<dim>448</dim>
					<dim>512</dim>
				</port>
			</output>
		</layer>
		<layer id="66" name="Constant_16583" type="Const" version="opset1">
			<data element_type="i64" shape="2" offset="144" size="16" />
			<rt_info>
				<attribute name="precise" version="0" />
			</rt_info>
			<output>
				<port id="0" precision="I64">
					<dim>2</dim>
				</port>
			</output>
		</layer>
		<layer id="67" name="Constant_16584" type="Const" version="opset1">
			<data element_type="i64" shape="2" offset="144" size="16" />
			<rt_info>
				<attribute name="precise" version="0" />
			</rt_info>
			<output>
				<port id="0" precision="I64">
					<dim>2</dim>
				</port>
			</output>
		</layer>
		<layer id="68" name="Constant_16580" type="Const" version="opset1">
			<data element_type="i64" shape="1" offset="8" size="8" />
			<rt_info>
				<attribute name="precise" version="0" />
			</rt_info>
			<output>
				<port id="0" precision="I64">
					<dim>1</dim>
				</port>
			</output>
		</layer>
		<layer id="69" name="Constant_16579" type="Const" version="opset1">
			<data element_type="i32" shape="1" offset="160" size="4" />
			<rt_info>
				<attribute name="precise" version="0" />
			</rt_info>
			<output>
				<port id="0" precision="I32">
					<dim>1</dim>
				</port>
			</output>
		</layer>
		<layer id="70" name="ScatterUpdate_16585" type="ScatterUpdate" version="opset3">
			<input>
				<port id="0" precision="I64">
					<dim>2</dim>
				</port>
				<port id="1" precision="I64">
					<dim>1</dim>
				</port>
				<port id="2" precision="I64">
					<dim>1</dim>
				</port>
				<port id="3" precision="I32">
					<dim>1</dim>
				</port>
			</input>
			<output>
				<port id="4" precision="I64">
					<dim>2</dim>
				</port>
			</output>
		</layer>
		<layer id="71" name="Constant_16588" type="Const" version="opset1">
			<data element_type="i64" shape="2" offset="164" size="16" />
			<rt_info>
				<attribute name="precise" version="0" />
			</rt_info>
			<output>
				<port id="0" precision="I64">
					<dim>2</dim>
				</port>
			</output>
		</layer>
		<layer id="72" name="/Slice_2" type="StridedSlice" version="opset1">
			<data begin_mask="1, 0" end_mask="1, 0" new_axis_mask="" shrink_axis_mask="" ellipsis_mask="" />
			<input>
				<port id="0" precision="FP32">
					<dim>-1</dim>
					<dim>448</dim>
					<dim>512</dim>
				</port>
				<port id="1" precision="I64">
					<dim>2</dim>
				</port>
				<port id="2" precision="I64">
					<dim>2</dim>
				</port>
				<port id="3" precision="I64">
					<dim>2</dim>
				</port>
			</input>
			<output>
				<port id="4" precision="FP32" names="/Slice_16_output_0,/Slice_2_output_0">
					<dim>-1</dim>
					<dim>-1</dim>
					<dim>512</dim>
				</port>
			</output>
		</layer>
		<layer id="73" name="/Constant_53" type="Const" version="opset1">
			<data element_type="i64" shape="" offset="0" size="8" />
			<output>
				<port id="0" precision="I64" names="/Constant_53_output_0" />
			</output>
		</layer>
		<layer id="74" name="/Shape_15" type="ShapeOf" version="opset3">
			<data output_type="i64" />
			<input>
				<port id="0" precision="FP32">
					<dim>-1</dim>
					<dim>-1</dim>
					<dim>512</dim>
				</port>
			</input>
			<output>
				<port id="1" precision="I64" names="/Shape_15_output_0,/Shape_16_output_0,/Shape_17_output_0,/Shape_22_output_0,/Shape_51_output_0">
					<dim>3</dim>
				</port>
			</output>
		</layer>
		<layer id="75" name="/Constant_52" type="Const" version="opset1">
			<data element_type="i64" shape="" offset="0" size="8" />
			<output>
				<port id="0" precision="I64" names="/Constant_52_output_0" />
			</output>
		</layer>
		<layer id="76" name="Constant_399" type="Const" version="opset1">
			<data element_type="i64" shape="" offset="0" size="8" />
			<output>
				<port id="0" precision="I64" />
			</output>
		</layer>
		<layer id="77" name="/Gather_16" type="Gather" version="opset8">
			<data batch_dims="0" />
			<input>
				<port id="0" precision="I64">
					<dim>3</dim>
				</port>
				<port id="1" precision="I64" />
				<port id="2" precision="I64" />
			</input>
			<output>
				<port id="3" precision="I64" names="/Cast_4_output_0,/Gather_16_output_0" />
			</output>
		</layer>
		<layer id="78" name="/Constant_54" type="Const" version="opset1">
			<data element_type="i64" shape="" offset="8" size="8" />
			<output>
				<port id="0" precision="I64" names="/Constant_54_output_0" />
			</output>
		</layer>
		<layer id="79" name="/Range_3" type="Range" version="opset4">
			<data output_type="i64" />
			<input>
				<port id="0" precision="I64" />
				<port id="1" precision="I64" />
				<port id="2" precision="I64" />
			</input>
			<output>
				<port id="3" precision="I64" names="/Range_3_output_0">
					<dim>-1</dim>
				</port>
			</output>
		</layer>
		<layer id="80" name="/Constant_65" type="Const" version="opset1">
			<data element_type="i64" shape="3" offset="16" size="24" />
			<rt_info>
				<attribute name="precise" version="0" />
			</rt_info>
			<output>
				<port id="0" precision="I64" names="/Constant_65_output_0">
					<dim>3</dim>
				</port>
			</output>
		</layer>
		<layer id="81" name="/Reshape_3" type="Reshape" version="opset1">
			<data special_zero="true" />
			<input>
				<port id="0" precision="I64">
					<dim>-1</dim>
				</port>
				<port id="1" precision="I64">
					<dim>3</dim>
				</port>
			</input>
			<output>
				<port id="2" precision="I64" names="/Reshape_3_output_0">
					<dim>-1</dim>
					<dim>1</dim>
					<dim>1</dim>
				</port>
			</output>
		</layer>
		<layer id="82" name="/Constant_56" type="Const" version="opset1">
			<data element_type="i64" shape="" offset="0" size="8" />
			<output>
				<port id="0" precision="I64" names="/Constant_56_output_0" />
			</output>
		</layer>
		<layer id="83" name="/Constant_55" type="Const" version="opset1">
			<data element_type="i64" shape="" offset="8" size="8" />
			<output>
				<port id="0" precision="I64" names="/Constant_55_output_0" />
			</output>
		</layer>
		<layer id="84" name="Constant_413" type="Const" version="opset1">
			<data element_type="i64" shape="" offset="0" size="8" />
			<output>
				<port id="0" precision="I64" />
			</output>
		</layer>
		<layer id="85" name="/Gather_17" type="Gather" version="opset8">
			<data batch_dims="0" />
			<input>
				<port id="0" precision="I64">
					<dim>3</dim>
				</port>
				<port id="1" precision="I64" />
				<port id="2" precision="I64" />
			</input>
			<output>
				<port id="3" precision="I64" names="/Cast_5_output_0,/Gather_17_output_0" />
			</output>
		</layer>
		<layer id="86" name="/Constant_57" type="Const" version="opset1">
			<data element_type="i64" shape="" offset="8" size="8" />
			<output>
				<port id="0" precision="I64" names="/Constant_57_output_0" />
			</output>
		</layer>
		<layer id="87" name="/Range_4" type="Range" version="opset4">
			<data output_type="i64" />
			<input>
				<port id="0" precision="I64" />
				<port id="1" precision="I64" />
				<port id="2" precision="I64" />
			</input>
			<output>
				<port id="3" precision="I64" names="/Range_4_output_0">
					<dim>-1</dim>
				</port>
			</output>
		</layer>
		<layer id="88" name="Constant_21406_compressed" type="Const" version="opset1">
			<data element_type="f16" shape="1, 1, 512" offset="180" size="1024" />
			<output>
				<port id="0" precision="FP16">
					<dim>1</dim>
					<dim>1</dim>
					<dim>512</dim>
				</port>
			</output>
		</layer>
		<layer id="89" name="Constant_21406" type="Convert" version="opset1">
			<data destination_type="f32" />
			<rt_info>
				<attribute name="decompression" version="0" />
			</rt_info>
			<input>
				<port id="0" precision="FP16">
					<dim>1</dim>
					<dim>1</dim>
					<dim>512</dim>
				</port>
			</input>
			<output>
				<port id="1" precision="FP32">
					<dim>1</dim>
					<dim>1</dim>
					<dim>512</dim>
				</port>
			</output>
		</layer>
		<layer id="90" name="onnx::MatMul_4544_compressed" type="Const" version="opset1">
			<data element_type="f16" shape="51865, 512" offset="1204" size="53109760" />
			<output>
				<port id="0" precision="FP16">
					<dim>51865</dim>
					<dim>512</dim>
				</port>
			</output>
		</layer>
		<layer id="91" name="onnx::MatMul_4544" type="Convert" version="opset1">
			<data destination_type="f32" />
			<rt_info>
				<attribute name="decompression" version="0" />
			</rt_info>
			<input>
				<port id="0" precision="FP16">
					<dim>51865</dim>
					<dim>512</dim>
				</port>
			</input>
			<output>
				<port id="1" precision="FP32" names="onnx::MatMul_4544,textDecoder.token_embedding.weight">
					<dim>51865</dim>
					<dim>512</dim>
				</port>
			</output>
		</layer>
		<layer id="92" name="Constant_137" type="Const" version="opset1">
			<data element_type="i64" shape="" offset="0" size="8" />
			<output>
				<port id="0" precision="I64" />
			</output>
		</layer>
		<layer id="93" name="/token_embedding/Gather" type="Gather" version="opset8">
			<data batch_dims="0" />
			<input>
				<port id="0" precision="FP32">
					<dim>51865</dim>
					<dim>512</dim>
				</port>
				<port id="1" precision="I64">
					<dim>-1</dim>
					<dim>-1</dim>
				</port>
				<port id="2" precision="I64" />
			</input>
			<output>
				<port id="3" precision="FP32" names="/token_embedding/Gather_output_0">
					<dim>-1</dim>
					<dim>-1</dim>
					<dim>512</dim>
				</port>
			</output>
		</layer>
		<layer id="94" name="textDecoder.positional_embedding_compressed" type="Const" version="opset1">
			<data element_type="f16" shape="448, 512" offset="53110964" size="458752" />
			<output>
				<port id="0" precision="FP16">
					<dim>448</dim>
					<dim>512</dim>
				</port>
			</output>
		</layer>
		<layer id="95" name="textDecoder.positional_embedding" type="Convert" version="opset1">
			<data destination_type="f32" />
			<rt_info>
				<attribute name="decompression" version="0" />
			</rt_info>
			<input>
				<port id="0" precision="FP16">
					<dim>448</dim>
					<dim>512</dim>
				</port>
			</input>
			<output>
				<port id="1" precision="FP32" names="textDecoder.positional_embedding">
					<dim>448</dim>
					<dim>512</dim>
				</port>
			</output>
		</layer>
		<layer id="96" name="/Constant_6" type="Const" version="opset1">
			<data element_type="i64" shape="1" offset="8" size="8" />
			<rt_info>
				<attribute name="precise" version="0" />
			</rt_info>
			<output>
				<port id="0" precision="I64" names="/Constant_6_output_0">
					<dim>1</dim>
				</port>
			</output>
		</layer>
		<layer id="97" name="/Slice" type="StridedSlice" version="opset1">
			<data begin_mask="0" end_mask="0" new_axis_mask="" shrink_axis_mask="" ellipsis_mask="" />
			<input>
				<port id="0" precision="FP32">
					<dim>448</dim>
					<dim>512</dim>
				</port>
				<port id="1" precision="I64">
					<dim>1</dim>
				</port>
				<port id="2" precision="I64">
					<dim>1</dim>
				</port>
				<port id="3" precision="I64">
					<dim>1</dim>
				</port>
			</input>
			<output>
				<port id="4" precision="FP32" names="/Slice_output_0">
					<dim>-1</dim>
					<dim>512</dim>
				</port>
			</output>
		</layer>
		<layer id="98" name="/Add_1" type="Add" version="opset1">
			<data auto_broadcast="numpy" />
			<input>
				<port id="0" precision="FP32">
					<dim>-1</dim>
					<dim>-1</dim>
					<dim>512</dim>
				</port>
				<port id="1" precision="FP32">
					<dim>-1</dim>
					<dim>512</dim>
				</port>
			</input>
			<output>
				<port id="2" precision="FP32" names="/Add_1_output_0,/Cast_output_0,/attn_ln/Cast_output_0">
					<dim>-1</dim>
					<dim>-1</dim>
					<dim>512</dim>
				</port>
			</output>
		</layer>
		<layer id="99" name="Constant_195" type="Const" version="opset1">
			<data element_type="i64" shape="1" offset="136" size="8" />
			<output>
				<port id="0" precision="I64">
					<dim>1</dim>
				</port>
			</output>
		</layer>
		<layer id="100" name="/attn_ln/Div" type="MVN" version="opset6">
			<data eps="9.9999997473787516e-06" normalize_variance="true" eps_mode="INSIDE_SQRT" />
			<input>
				<port id="0" precision="FP32">
					<dim>-1</dim>
					<dim>-1</dim>
					<dim>512</dim>
				</port>
				<port id="1" precision="I64">
					<dim>1</dim>
				</port>
			</input>
			<output>
				<port id="2" precision="FP32" names="/attn_ln/Div_output_0">
					<dim>-1</dim>
					<dim>-1</dim>
					<dim>512</dim>
				</port>
			</output>
		</layer>
		<layer id="101" name="Constant_21404_compressed" type="Const" version="opset1">
			<data element_type="f16" shape="1, 1, 512" offset="53569716" size="1024" />
			<output>
				<port id="0" precision="FP16">
					<dim>1</dim>
					<dim>1</dim>
					<dim>512</dim>
				</port>
			</output>
		</layer>
		<layer id="102" name="Constant_21404" type="Convert" version="opset1">
			<data destination_type="f32" />
			<rt_info>
				<attribute name="decompression" version="0" />
			</rt_info>
			<input>
				<port id="0" precision="FP16">
					<dim>1</dim>
					<dim>1</dim>
					<dim>512</dim>
				</port>
			</input>
			<output>
				<port id="1" precision="FP32">
					<dim>1</dim>
					<dim>1</dim>
					<dim>512</dim>
				</port>
			</output>
		</layer>
		<layer id="103" name="/attn_ln/Mul" type="Multiply" version="opset1">
			<data auto_broadcast="numpy" />
			<input>
				<port id="0" precision="FP32">
					<dim>-1</dim>
					<dim>-1</dim>
					<dim>512</dim>
				</port>
				<port id="1" precision="FP32">
					<dim>1</dim>
					<dim>1</dim>
					<dim>512</dim>
				</port>
			</input>
			<output>
				<port id="2" precision="FP32" names="/attn_ln/Mul_output_0">
					<dim>-1</dim>
					<dim>-1</dim>
					<dim>512</dim>
				</port>
			</output>
		</layer>
		<layer id="104" name="Constant_21405_compressed" type="Const" version="opset1">
			<data element_type="f16" shape="1, 1, 512" offset="53570740" size="1024" />
			<output>
				<port id="0" precision="FP16">
					<dim>1</dim>
					<dim>1</dim>
					<dim>512</dim>
				</port>
			</output>
		</layer>
		<layer id="105" name="Constant_21405" type="Convert" version="opset1">
			<data destination_type="f32" />
			<rt_info>
				<attribute name="decompression" version="0" />
			</rt_info>
			<input>
				<port id="0" precision="FP16">
					<dim>1</dim>
					<dim>1</dim>
					<dim>512</dim>
				</port>
			</input>
			<output>
				<port id="1" precision="FP32">
					<dim>1</dim>
					<dim>1</dim>
					<dim>512</dim>
				</port>
			</output>
		</layer>
		<layer id="106" name="/attn_ln/Add_1" type="Add" version="opset1">
			<data auto_broadcast="numpy" />
			<input>
				<port id="0" precision="FP32">
					<dim>-1</dim>
					<dim>-1</dim>
					<dim>512</dim>
				</port>
				<port id="1" precision="FP32">
					<dim>1</dim>
					<dim>1</dim>
					<dim>512</dim>
				</port>
			</input>
			<output>
				<port id="2" precision="FP32" names="/attn_ln/Add_1_output_0,/attn_ln/Cast_1_output_0">
					<dim>-1</dim>
					<dim>-1</dim>
					<dim>512</dim>
				</port>
			</output>
		</layer>
		<layer id="107" name="Transpose_18236_compressed" type="Const" version="opset1">
			<data element_type="f16" shape="512, 512" offset="53571764" size="524288" />
			<output>
				<port id="0" precision="FP16">
					<dim>512</dim>
					<dim>512</dim>
				</port>
			</output>
		</layer>
		<layer id="108" name="Transpose_18236" type="Convert" version="opset1">
			<data destination_type="f32" />
			<rt_info>
				<attribute name="decompression" version="0" />
			</rt_info>
			<input>
				<port id="0" precision="FP16">
					<dim>512</dim>
					<dim>512</dim>
				</port>
			</input>
			<output>
				<port id="1" precision="FP32">
					<dim>512</dim>
					<dim>512</dim>
				</port>
			</output>
		</layer>
		<layer id="109" name="/value/MatMul" type="MatMul" version="opset1">
			<data transpose_a="false" transpose_b="true" />
			<input>
				<port id="0" precision="FP32">
					<dim>-1</dim>
					<dim>-1</dim>
					<dim>512</dim>
				</port>
				<port id="1" precision="FP32">
					<dim>512</dim>
					<dim>512</dim>
				</port>
			</input>
			<output>
				<port id="2" precision="FP32" names="/value/MatMul_output_0">
					<dim>-1</dim>
					<dim>-1</dim>
					<dim>512</dim>
				</port>
			</output>
		</layer>
		<layer id="110" name="/value/Add" type="Add" version="opset1">
			<data auto_broadcast="numpy" />
			<input>
				<port id="0" precision="FP32">
					<dim>1</dim>
					<dim>1</dim>
					<dim>512</dim>
				</port>
				<port id="1" precision="FP32">
					<dim>-1</dim>
					<dim>-1</dim>
					<dim>512</dim>
				</port>
			</input>
			<output>
				<port id="2" precision="FP32" names="/value/Add_output_0">
					<dim>-1</dim>
					<dim>-1</dim>
					<dim>512</dim>
				</port>
			</output>
		</layer>
		<layer id="111" name="/Shape_13" type="ShapeOf" version="opset3">
			<data output_type="i64" />
			<input>
				<port id="0" precision="FP32">
					<dim>-1</dim>
					<dim>-1</dim>
					<dim>512</dim>
				</port>
			</input>
			<output>
				<port id="1" precision="I64" names="/Shape_13_output_0">
					<dim>3</dim>
				</port>
			</output>
		</layer>
		<layer id="112" name="/Constant_47" type="Const" version="opset1">
			<data element_type="i64" shape="" offset="8" size="8" />
			<rt_info>
				<attribute name="precise" version="0" />
			</rt_info>
			<output>
				<port id="0" precision="I64" names="/Constant_47_output_0" />
			</output>
		</layer>
		<layer id="113" name="Constant_382" type="Const" version="opset1">
			<data element_type="i64" shape="" offset="0" size="8" />
			<rt_info>
				<attribute name="precise" version="0" />
			</rt_info>
			<output>
				<port id="0" precision="I64" />
			</output>
		</layer>
		<layer id="114" name="/Gather_15" type="Gather" version="opset8">
			<data batch_dims="0" />
			<input>
				<port id="0" precision="I64">
					<dim>3</dim>
				</port>
				<port id="1" precision="I64" />
				<port id="2" precision="I64" />
			</input>
			<output>
				<port id="3" precision="I64" names="/Gather_15_output_0" />
			</output>
		</layer>
		<layer id="115" name="Constant_18971" type="Const" version="opset1">
			<data element_type="i64" shape="" offset="136" size="8" />
			<rt_info>
				<attribute name="precise" version="0" />
			</rt_info>
			<output>
				<port id="0" precision="I64" />
			</output>
		</layer>
		<layer id="116" name="/Neg_1" type="Multiply" version="opset1">
			<data auto_broadcast="numpy" />
			<input>
				<port id="0" precision="I64" />
				<port id="1" precision="I64" />
			</input>
			<output>
				<port id="2" precision="I64" names="/Neg_1_output_0" />
			</output>
		</layer>
		<layer id="117" name="/Constant_48" type="Const" version="opset1">
			<data element_type="i64" shape="1" offset="0" size="8" />
			<rt_info>
				<attribute name="precise" version="0" />
			</rt_info>
			<output>
				<port id="0" precision="I64" names="/Constant_48_output_0">
					<dim>1</dim>
				</port>
			</output>
		</layer>
		<layer id="118" name="/Unsqueeze_9" type="Unsqueeze" version="opset1">
			<input>
				<port id="0" precision="I64" />
				<port id="1" precision="I64">
					<dim>1</dim>
				</port>
			</input>
			<output>
				<port id="2" precision="I64" names="/Unsqueeze_10_output_0,/Unsqueeze_9_output_0">
					<dim>1</dim>
				</port>
			</output>
		</layer>
		<layer id="119" name="/Constant_59" type="Const" version="opset1">
			<data element_type="i64" shape="1" offset="54096052" size="8" />
			<rt_info>
				<attribute name="precise" version="0" />
			</rt_info>
			<output>
				<port id="0" precision="I64" names="/Constant_59_output_0">
					<dim>1</dim>
				</port>
			</output>
		</layer>
		<layer id="120" name="/Constant_61" type="Const" version="opset1">
			<data element_type="i64" shape="1" offset="8" size="8" />
			<rt_info>
				<attribute name="precise" version="0" />
			</rt_info>
			<output>
				<port id="0" precision="I64" names="/Constant_61_output_0">
					<dim>1</dim>
				</port>
			</output>
		</layer>
		<layer id="121" name="/Slice_7" type="StridedSlice" version="opset1">
			<data begin_mask="0" end_mask="0" new_axis_mask="" shrink_axis_mask="" ellipsis_mask="" />
			<input>
				<port id="0" precision="I64">
					<dim>-1</dim>
				</port>
				<port id="1" precision="I64">
					<dim>1</dim>
				</port>
				<port id="2" precision="I64">
					<dim>1</dim>
				</port>
				<port id="3" precision="I64">
					<dim>1</dim>
				</port>
			</input>
			<output>
				<port id="4" precision="I64" names="/Slice_7_output_0">
					<dim>-1</dim>
				</port>
			</output>
		</layer>
		<layer id="122" name="/Constant_66" type="Const" version="opset1">
			<data element_type="i64" shape="2" offset="48" size="16" />
			<rt_info>
				<attribute name="precise" version="0" />
			</rt_info>
			<output>
				<port id="0" precision="I64" names="/Constant_66_output_0">
					<dim>2</dim>
				</port>
			</output>
		</layer>
		<layer id="123" name="/Reshape_4" type="Reshape" version="opset1">
			<data special_zero="true" />
			<input>
				<port id="0" precision="I64">
					<dim>-1</dim>
				</port>
				<port id="1" precision="I64">
					<dim>2</dim>
				</port>
			</input>
			<output>
				<port id="2" precision="I64" names="/Reshape_4_output_0">
					<dim>-1</dim>
					<dim>1</dim>
				</port>
			</output>
		</layer>
		<layer id="124" name="/Add_6" type="Add" version="opset1">
			<data auto_broadcast="numpy" />
			<input>
				<port id="0" precision="I64">
					<dim>-1</dim>
					<dim>1</dim>
					<dim>1</dim>
				</port>
				<port id="1" precision="I64">
					<dim>-1</dim>
					<dim>1</dim>
				</port>
			</input>
			<output>
				<port id="2" precision="I64" names="/Add_6_output_0">
					<dim>-1</dim>
					<dim>-1</dim>
					<dim>1</dim>
				</port>
			</output>
		</layer>
		<layer id="125" name="/Constant_63" type="Const" version="opset1">
			<data element_type="i64" shape="" offset="0" size="8" />
			<output>
				<port id="0" precision="I64" names="/Constant_63_output_0" />
			</output>
		</layer>
		<layer id="126" name="/Constant_62" type="Const" version="opset1">
			<data element_type="i64" shape="" offset="40" size="8" />
			<output>
				<port id="0" precision="I64" names="/Constant_62_output_0" />
			</output>
		</layer>
		<layer id="127" name="Constant_434" type="Const" version="opset1">
			<data element_type="i64" shape="" offset="0" size="8" />
			<output>
				<port id="0" precision="I64" />
			</output>
		</layer>
		<layer id="128" name="/Gather_18" type="Gather" version="opset8">
			<data batch_dims="0" />
			<input>
				<port id="0" precision="I64">
					<dim>3</dim>
				</port>
				<port id="1" precision="I64" />
				<port id="2" precision="I64" />
			</input>
			<output>
				<port id="3" precision="I64" names="/Cast_6_output_0,/Gather_18_output_0" />
			</output>
		</layer>
		<layer id="129" name="/Constant_64" type="Const" version="opset1">
			<data element_type="i64" shape="" offset="8" size="8" />
			<output>
				<port id="0" precision="I64" names="/Constant_64_output_0" />
			</output>
		</layer>
		<layer id="130" name="/Range_5" type="Range" version="opset4">
			<data output_type="i64" />
			<input>
				<port id="0" precision="I64" />
				<port id="1" precision="I64" />
				<port id="2" precision="I64" />
			</input>
			<output>
				<port id="3" precision="I64" names="/Range_5_output_0">
					<dim>512</dim>
				</port>
			</output>
		</layer>
		<layer id="131" name="/Add_7" type="Add" version="opset1">
			<data auto_broadcast="numpy" />
			<input>
				<port id="0" precision="I64">
					<dim>-1</dim>
					<dim>-1</dim>
					<dim>1</dim>
				</port>
				<port id="1" precision="I64">
					<dim>512</dim>
				</port>
			</input>
			<output>
				<port id="2" precision="I64" names="/Add_7_output_0">
					<dim>-1</dim>
					<dim>-1</dim>
					<dim>512</dim>
				</port>
			</output>
		</layer>
		<layer id="132" name="/Shape_18" type="ShapeOf" version="opset3">
			<data output_type="i64" />
			<input>
				<port id="0" precision="I64">
					<dim>-1</dim>
					<dim>-1</dim>
					<dim>512</dim>
				</port>
			</input>
			<output>
				<port id="1" precision="I64" names="/Concat_3_output_0,/Shape_18_output_0">
					<dim>3</dim>
				</port>
			</output>
		</layer>
		<layer id="133" name="/Mul_3" type="Const" version="opset1">
			<data element_type="i64" shape="3" offset="54096060" size="24" />
			<rt_info>
				<attribute name="precise" version="0" />
			</rt_info>
			<output>
				<port id="0" precision="I64" names="/Mul_3_output_0,/Mul_4_output_0,/Mul_5_output_0">
					<dim>3</dim>
				</port>
			</output>
		</layer>
		<layer id="134" name="/Equal_3" type="Equal" version="opset1">
			<data auto_broadcast="numpy" />
			<input>
				<port id="0" precision="I64">
					<dim>3</dim>
				</port>
				<port id="1" precision="I64">
					<dim>3</dim>
				</port>
			</input>
			<output>
				<port id="2" precision="BOOL" names="/Equal_3_output_0,/Equal_4_output_0,/Equal_5_output_0">
					<dim>3</dim>
				</port>
			</output>
		</layer>
		<layer id="135" name="/ConstantOfShape_3" type="Const" version="opset1">
			<data element_type="i64" shape="3" offset="54096084" size="24" />
			<rt_info>
				<attribute name="precise" version="0" />
			</rt_info>
			<output>
				<port id="0" precision="I64" names="/ConstantOfShape_3_output_0,/ConstantOfShape_4_output_0,/ConstantOfShape_5_output_0">
					<dim>3</dim>
				</port>
			</output>
		</layer>
		<layer id="136" name="/Where_3" type="Select" version="opset1">
			<data auto_broadcast="numpy" />
			<input>
				<port id="0" precision="BOOL">
					<dim>3</dim>
				</port>
				<port id="1" precision="I64">
					<dim>3</dim>
				</port>
				<port id="2" precision="I64">
					<dim>3</dim>
				</port>
			</input>
			<output>
				<port id="3" precision="I64" names="/Where_3_output_0,/Where_4_output_0,/Where_5_output_0">
					<dim>3</dim>
				</port>
			</output>
		</layer>
		<layer id="137" name="/Expand_5" type="Broadcast" version="opset3">
			<data mode="bidirectional" />
			<input>
				<port id="0" precision="I64">
					<dim>-1</dim>
					<dim>1</dim>
					<dim>1</dim>
				</port>
				<port id="1" precision="I64">
					<dim>3</dim>
				</port>
			</input>
			<output>
				<port id="2" precision="I64" names="/Expand_5_output_0">
					<dim>-1</dim>
					<dim>-1</dim>
					<dim>512</dim>
				</port>
			</output>
		</layer>
		<layer id="138" name="/Constant_68" type="Const" version="opset1">
			<data element_type="i64" shape="1" offset="136" size="8" />
			<output>
				<port id="0" precision="I64" names="/Constant_68_output_0">
					<dim>1</dim>
				</port>
			</output>
		</layer>
		<layer id="139" name="/Unsqueeze_11" type="Unsqueeze" version="opset1">
			<input>
				<port id="0" precision="I64">
					<dim>-1</dim>
					<dim>-1</dim>
					<dim>512</dim>
				</port>
				<port id="1" precision="I64">
					<dim>1</dim>
				</port>
			</input>
			<output>
				<port id="2" precision="I64" names="/Unsqueeze_11_output_0">
					<dim>-1</dim>
					<dim>-1</dim>
					<dim>512</dim>
					<dim>1</dim>
				</port>
			</output>
		</layer>
		<layer id="140" name="/Expand_6" type="Broadcast" version="opset3">
			<data mode="bidirectional" />
			<input>
				<port id="0" precision="I64">
					<dim>-1</dim>
					<dim>1</dim>
				</port>
				<port id="1" precision="I64">
					<dim>3</dim>
				</port>
			</input>
			<output>
				<port id="2" precision="I64" names="/Expand_6_output_0">
					<dim>-1</dim>
					<dim>-1</dim>
					<dim>512</dim>
				</port>
			</output>
		</layer>
		<layer id="141" name="/Constant_70" type="Const" version="opset1">
			<data element_type="i64" shape="1" offset="136" size="8" />
			<output>
				<port id="0" precision="I64" names="/Constant_70_output_0">
					<dim>1</dim>
				</port>
			</output>
		</layer>
		<layer id="142" name="/Unsqueeze_12" type="Unsqueeze" version="opset1">
			<input>
				<port id="0" precision="I64">
					<dim>-1</dim>
					<dim>-1</dim>
					<dim>512</dim>
				</port>
				<port id="1" precision="I64">
					<dim>1</dim>
				</port>
			</input>
			<output>
				<port id="2" precision="I64" names="/Unsqueeze_12_output_0">
					<dim>-1</dim>
					<dim>-1</dim>
					<dim>512</dim>
					<dim>1</dim>
				</port>
			</output>
		</layer>
		<layer id="143" name="/Expand_7" type="Broadcast" version="opset3">
			<data mode="bidirectional" />
			<input>
				<port id="0" precision="I64">
					<dim>512</dim>
				</port>
				<port id="1" precision="I64">
					<dim>3</dim>
				</port>
			</input>
			<output>
				<port id="2" precision="I64" names="/Expand_7_output_0">
					<dim>-1</dim>
					<dim>-1</dim>
					<dim>512</dim>
				</port>
			</output>
		</layer>
		<layer id="144" name="/Constant_72" type="Const" version="opset1">
			<data element_type="i64" shape="1" offset="136" size="8" />
			<output>
				<port id="0" precision="I64" names="/Constant_72_output_0">
					<dim>1</dim>
				</port>
			</output>
		</layer>
		<layer id="145" name="/Unsqueeze_13" type="Unsqueeze" version="opset1">
			<input>
				<port id="0" precision="I64">
					<dim>-1</dim>
					<dim>-1</dim>
					<dim>512</dim>
				</port>
				<port id="1" precision="I64">
					<dim>1</dim>
				</port>
			</input>
			<output>
				<port id="2" precision="I64" names="/Unsqueeze_13_output_0">
					<dim>-1</dim>
					<dim>-1</dim>
					<dim>512</dim>
					<dim>1</dim>
				</port>
			</output>
		</layer>
		<layer id="146" name="/Concat_2" type="Concat" version="opset1">
			<data axis="-1" />
			<input>
				<port id="0" precision="I64">
					<dim>-1</dim>
					<dim>-1</dim>
					<dim>512</dim>
					<dim>1</dim>
				</port>
				<port id="1" precision="I64">
					<dim>-1</dim>
					<dim>-1</dim>
					<dim>512</dim>
					<dim>1</dim>
				</port>
				<port id="2" precision="I64">
					<dim>-1</dim>
					<dim>-1</dim>
					<dim>512</dim>
					<dim>1</dim>
				</port>
			</input>
			<output>
				<port id="3" precision="I64" names="/Concat_2_output_0">
					<dim>-1</dim>
					<dim>-1</dim>
					<dim>512</dim>
					<dim>3</dim>
				</port>
			</output>
		</layer>
		<layer id="147" name="Constant_16595" type="Const" version="opset1">
			<data element_type="i64" shape="2" offset="144" size="16" />
			<output>
				<port id="0" precision="I64">
					<dim>2</dim>
				</port>
			</output>
		</layer>
		<layer id="148" name="Constant_16594" type="Const" version="opset1">
			<data element_type="i64" shape="1" offset="8" size="8" />
			<output>
				<port id="0" precision="I64">
					<dim>1</dim>
				</port>
			</output>
		</layer>
		<layer id="149" name="Constant_16593" type="Const" version="opset1">
			<data element_type="i32" shape="1" offset="160" size="4" />
			<output>
				<port id="0" precision="I32">
					<dim>1</dim>
				</port>
			</output>
		</layer>
		<layer id="150" name="ScatterUpdate_16596" type="ScatterUpdate" version="opset3">
			<input>
				<port id="0" precision="I64">
					<dim>2</dim>
				</port>
				<port id="1" precision="I64">
					<dim>1</dim>
				</port>
				<port id="2" precision="I64">
					<dim>1</dim>
				</port>
				<port id="3" precision="I32">
					<dim>1</dim>
				</port>
			</input>
			<output>
				<port id="4" precision="I64">
					<dim>2</dim>
				</port>
			</output>
		</layer>
		<layer id="151" name="Constant_16599" type="Const" version="opset1">
			<data element_type="i64" shape="2" offset="54096108" size="16" />
			<output>
				<port id="0" precision="I64">
					<dim>2</dim>
				</port>
			</output>
		</layer>
		<layer id="152" name="Constant_16602" type="Const" version="opset1">
			<data element_type="i64" shape="2" offset="164" size="16" />
			<output>
				<port id="0" precision="I64">
					<dim>2</dim>
				</port>
			</output>
		</layer>
		<layer id="153" name="/Slice_6" type="StridedSlice" version="opset1">
			<data begin_mask="1, 0" end_mask="1, 0" new_axis_mask="" shrink_axis_mask="" ellipsis_mask="" />
			<input>
				<port id="0" precision="FP32">
					<dim>-1</dim>
					<dim>-1</dim>
					<dim>512</dim>
				</port>
				<port id="1" precision="I64">
					<dim>2</dim>
				</port>
				<port id="2" precision="I64">
					<dim>2</dim>
				</port>
				<port id="3" precision="I64">
					<dim>2</dim>
				</port>
			</input>
			<output>
				<port id="4" precision="FP32" names="/Slice_6_output_0">
					<dim>-1</dim>
					<dim>-1</dim>
					<dim>512</dim>
				</port>
			</output>
		</layer>
		<layer id="154" name="/Shape_14" type="ShapeOf" version="opset3">
			<data output_type="i64" />
			<input>
				<port id="0" precision="FP32">
					<dim>-1</dim>
					<dim>-1</dim>
					<dim>512</dim>
				</port>
			</input>
			<output>
				<port id="1" precision="I64" names="/Shape_14_output_0">
					<dim>3</dim>
				</port>
			</output>
		</layer>
		<layer id="155" name="/Expand_4" type="Broadcast" version="opset3">
			<data mode="bidirectional" />
			<input>
				<port id="0" precision="FP32">
					<dim>-1</dim>
					<dim>-1</dim>
					<dim>512</dim>
				</port>
				<port id="1" precision="I64">
					<dim>3</dim>
				</port>
			</input>
			<output>
				<port id="2" precision="FP32" names="/Expand_4_output_0">
					<dim>-1</dim>
					<dim>-1</dim>
					<dim>512</dim>
				</port>
			</output>
		</layer>
		<layer id="156" name="/Reshape_5" type="Reshape" version="opset1">
			<data special_zero="true" />
			<input>
				<port id="0" precision="FP32">
					<dim>-1</dim>
					<dim>-1</dim>
					<dim>512</dim>
				</port>
				<port id="1" precision="I64">
					<dim>3</dim>
				</port>
			</input>
			<output>
				<port id="2" precision="FP32" names="/Reshape_5_output_0">
					<dim>-1</dim>
					<dim>-1</dim>
					<dim>512</dim>
				</port>
			</output>
		</layer>
		<layer id="157" name="/ScatterND_1" type="ScatterNDUpdate" version="opset4">
			<input>
				<port id="0" precision="FP32">
					<dim>-1</dim>
					<dim>-1</dim>
					<dim>512</dim>
				</port>
				<port id="1" precision="I64">
					<dim>-1</dim>
					<dim>-1</dim>
					<dim>512</dim>
					<dim>3</dim>
				</port>
				<port id="2" precision="FP32">
					<dim>-1</dim>
					<dim>-1</dim>
					<dim>512</dim>
				</port>
			</input>
			<output>
				<port id="3" precision="FP32" names="/ScatterND_1_output_0">
					<dim>-1</dim>
					<dim>-1</dim>
					<dim>512</dim>
				</port>
			</output>
		</layer>
		<layer id="158" name="/Expand_13" type="Broadcast" version="opset3">
			<data mode="bidirectional" />
			<input>
				<port id="0" precision="FP32">
					<dim>-1</dim>
					<dim>-1</dim>
					<dim>512</dim>
				</port>
				<port id="1" precision="I64">
					<dim>3</dim>
				</port>
			</input>
			<output>
				<port id="2" precision="FP32" names="/Expand_13_output_0">
					<dim>-1</dim>
					<dim>-1</dim>
					<dim>512</dim>
				</port>
			</output>
		</layer>
		<layer id="159" name="/Reshape_19" type="Reshape" version="opset1">
			<data special_zero="true" />
			<input>
				<port id="0" precision="FP32">
					<dim>-1</dim>
					<dim>-1</dim>
					<dim>512</dim>
				</port>
				<port id="1" precision="I64">
					<dim>4</dim>
				</port>
			</input>
			<output>
				<port id="2" precision="FP32" names="/Reshape_19_output_0">
					<dim>1</dim>
					<dim>-1</dim>
					<dim>-1</dim>
					<dim>512</dim>
				</port>
			</output>
		</layer>
		<layer id="160" name="/ScatterND_3" type="ScatterNDUpdate" version="opset4">
			<input>
				<port id="0" precision="FP32">
					<dim>6</dim>
					<dim>-1</dim>
					<dim>448</dim>
					<dim>512</dim>
				</port>
				<port id="1" precision="I64">
					<dim>1</dim>
					<dim>-1</dim>
					<dim>-1</dim>
					<dim>512</dim>
					<dim>4</dim>
				</port>
				<port id="2" precision="FP32">
					<dim>1</dim>
					<dim>-1</dim>
					<dim>-1</dim>
					<dim>512</dim>
				</port>
			</input>
			<output>
				<port id="3" precision="FP32" names="/ScatterND_3_output_0">
					<dim>6</dim>
					<dim>-1</dim>
					<dim>448</dim>
					<dim>512</dim>
				</port>
			</output>
		</layer>
		<layer id="161" name="/Constant_354" type="Const" version="opset1">
			<data element_type="i64" shape="1, 1, 1, 1" offset="8" size="8" />
			<output>
				<port id="0" precision="I64" names="/Constant_354_output_0">
					<dim>1</dim>
					<dim>1</dim>
					<dim>1</dim>
					<dim>1</dim>
				</port>
			</output>
		</layer>
		<layer id="162" name="/Constant_357" type="Const" version="opset1">
			<data element_type="i64" shape="1, 1, 1, 1" offset="8" size="8" />
			<output>
				<port id="0" precision="I64" names="/Constant_357_output_0">
					<dim>1</dim>
					<dim>1</dim>
					<dim>1</dim>
					<dim>1</dim>
				</port>
			</output>
		</layer>
		<layer id="163" name="/Constant_342" type="Const" version="opset1">
			<data element_type="i64" shape="" offset="0" size="8" />
			<output>
				<port id="0" precision="I64" names="/Constant_342_output_0" />
			</output>
		</layer>
		<layer id="164" name="/Shape_112" type="ShapeOf" version="opset3">
			<data output_type="i64" />
			<input>
				<port id="0" precision="FP32">
					<dim>6</dim>
					<dim>-1</dim>
					<dim>448</dim>
					<dim>512</dim>
				</port>
			</input>
			<output>
				<port id="1" precision="I64" names="/Shape_112_output_0,/Shape_113_output_0,/Shape_114_output_0,/Shape_120_output_0">
					<dim>4</dim>
				</port>
			</output>
		</layer>
		<layer id="165" name="/Constant_341" type="Const" version="opset1">
			<data element_type="i64" shape="" offset="8" size="8" />
			<output>
				<port id="0" precision="I64" names="/Constant_341_output_0" />
			</output>
		</layer>
		<layer id="166" name="Constant_2067" type="Const" version="opset1">
			<data element_type="i64" shape="" offset="0" size="8" />
			<output>
				<port id="0" precision="I64" />
			</output>
		</layer>
		<layer id="167" name="/Gather_84" type="Gather" version="opset8">
			<data batch_dims="0" />
			<input>
				<port id="0" precision="I64">
					<dim>4</dim>
				</port>
				<port id="1" precision="I64" />
				<port id="2" precision="I64" />
			</input>
			<output>
				<port id="3" precision="I64" names="/Cast_42_output_0,/Gather_84_output_0" />
			</output>
		</layer>
		<layer id="168" name="/Constant_343" type="Const" version="opset1">
			<data element_type="i64" shape="" offset="8" size="8" />
			<output>
				<port id="0" precision="I64" names="/Constant_343_output_0" />
			</output>
		</layer>
		<layer id="169" name="/Range_21" type="Range" version="opset4">
			<data output_type="i64" />
			<input>
				<port id="0" precision="I64" />
				<port id="1" precision="I64" />
				<port id="2" precision="I64" />
			</input>
			<output>
				<port id="3" precision="I64" names="/Range_21_output_0">
					<dim>-1</dim>
				</port>
			</output>
		</layer>
		<layer id="170" name="/Constant_355" type="Const" version="opset1">
			<data element_type="i64" shape="3" offset="16" size="24" />
			<rt_info>
				<attribute name="precise" version="0" />
			</rt_info>
			<output>
				<port id="0" precision="I64" names="/Constant_355_output_0">
					<dim>3</dim>
				</port>
			</output>
		</layer>
		<layer id="171" name="/Reshape_37" type="Reshape" version="opset1">
			<data special_zero="true" />
			<input>
				<port id="0" precision="I64">
					<dim>-1</dim>
				</port>
				<port id="1" precision="I64">
					<dim>3</dim>
				</port>
			</input>
			<output>
				<port id="2" precision="I64" names="/Reshape_37_output_0">
					<dim>-1</dim>
					<dim>1</dim>
					<dim>1</dim>
				</port>
			</output>
		</layer>
		<layer id="172" name="/Add_35" type="Add" version="opset1">
			<data auto_broadcast="numpy" />
			<input>
				<port id="0" precision="I64">
					<dim>1</dim>
					<dim>1</dim>
					<dim>1</dim>
					<dim>1</dim>
				</port>
				<port id="1" precision="I64">
					<dim>-1</dim>
					<dim>1</dim>
					<dim>1</dim>
				</port>
			</input>
			<output>
				<port id="2" precision="I64" names="/Add_35_output_0">
					<dim>1</dim>
					<dim>-1</dim>
					<dim>1</dim>
					<dim>1</dim>
				</port>
			</output>
		</layer>
		<layer id="173" name="/Constant_345" type="Const" version="opset1">
			<data element_type="i64" shape="" offset="0" size="8" />
			<output>
				<port id="0" precision="I64" names="/Constant_345_output_0" />
			</output>
		</layer>
		<layer id="174" name="/Constant_344" type="Const" version="opset1">
			<data element_type="i64" shape="" offset="40" size="8" />
			<output>
				<port id="0" precision="I64" names="/Constant_344_output_0" />
			</output>
		</layer>
		<layer id="175" name="Constant_2081" type="Const" version="opset1">
			<data element_type="i64" shape="" offset="0" size="8" />
			<output>
				<port id="0" precision="I64" />
			</output>
		</layer>
		<layer id="176" name="/Gather_85" type="Gather" version="opset8">
			<data batch_dims="0" />
			<input>
				<port id="0" precision="I64">
					<dim>4</dim>
				</port>
				<port id="1" precision="I64" />
				<port id="2" precision="I64" />
			</input>
			<output>
				<port id="3" precision="I64" names="/Cast_43_output_0,/Gather_85_output_0" />
			</output>
		</layer>
		<layer id="177" name="/Constant_346" type="Const" version="opset1">
			<data element_type="i64" shape="" offset="8" size="8" />
			<output>
				<port id="0" precision="I64" names="/Constant_346_output_0" />
			</output>
		</layer>
		<layer id="178" name="/Range_22" type="Range" version="opset4">
			<data output_type="i64" />
			<input>
				<port id="0" precision="I64" />
				<port id="1" precision="I64" />
				<port id="2" precision="I64" />
			</input>
			<output>
				<port id="3" precision="I64" names="/Range_22_output_0">
					<dim>448</dim>
				</port>
			</output>
		</layer>
		<layer id="179" name="/Constant_347" type="Const" version="opset1">
			<data element_type="i64" shape="1" offset="0" size="8" />
			<rt_info>
				<attribute name="precise" version="0" />
			</rt_info>
			<output>
				<port id="0" precision="I64" names="/Constant_347_output_0">
					<dim>1</dim>
				</port>
			</output>
		</layer>
		<layer id="180" name="/Constant_350" type="Const" version="opset1">
			<data element_type="i64" shape="1" offset="8" size="8" />
			<rt_info>
				<attribute name="precise" version="0" />
			</rt_info>
			<output>
				<port id="0" precision="I64" names="/Constant_350_output_0">
					<dim>1</dim>
				</port>
			</output>
		</layer>
		<layer id="181" name="/Slice_35" type="StridedSlice" version="opset1">
			<data begin_mask="0" end_mask="0" new_axis_mask="" shrink_axis_mask="" ellipsis_mask="" />
			<input>
				<port id="0" precision="I64">
					<dim>448</dim>
				</port>
				<port id="1" precision="I64">
					<dim>1</dim>
				</port>
				<port id="2" precision="I64">
					<dim>1</dim>
				</port>
				<port id="3" precision="I64">
					<dim>1</dim>
				</port>
			</input>
			<output>
				<port id="4" precision="I64" names="/Slice_35_output_0">
					<dim>-1</dim>
				</port>
			</output>
		</layer>
		<layer id="182" name="/Constant_356" type="Const" version="opset1">
			<data element_type="i64" shape="2" offset="48" size="16" />
			<rt_info>
				<attribute name="precise" version="0" />
			</rt_info>
			<output>
				<port id="0" precision="I64" names="/Constant_356_output_0">
					<dim>2</dim>
				</port>
			</output>
		</layer>
		<layer id="183" name="/Reshape_38" type="Reshape" version="opset1">
			<data special_zero="true" />
			<input>
				<port id="0" precision="I64">
					<dim>-1</dim>
				</port>
				<port id="1" precision="I64">
					<dim>2</dim>
				</port>
			</input>
			<output>
				<port id="2" precision="I64" names="/Reshape_38_output_0">
					<dim>-1</dim>
					<dim>1</dim>
				</port>
			</output>
		</layer>
		<layer id="184" name="/Add_36" type="Add" version="opset1">
			<data auto_broadcast="numpy" />
			<input>
				<port id="0" precision="I64">
					<dim>1</dim>
					<dim>-1</dim>
					<dim>1</dim>
					<dim>1</dim>
				</port>
				<port id="1" precision="I64">
					<dim>-1</dim>
					<dim>1</dim>
				</port>
			</input>
			<output>
				<port id="2" precision="I64" names="/Add_36_output_0">
					<dim>1</dim>
					<dim>-1</dim>
					<dim>-1</dim>
					<dim>1</dim>
				</port>
			</output>
		</layer>
		<layer id="185" name="/Constant_352" type="Const" version="opset1">
			<data element_type="i64" shape="" offset="0" size="8" />
			<output>
				<port id="0" precision="I64" names="/Constant_352_output_0" />
			</output>
		</layer>
		<layer id="186" name="/Constant_351" type="Const" version="opset1">
			<data element_type="i64" shape="" offset="64" size="8" />
			<output>
				<port id="0" precision="I64" names="/Constant_351_output_0" />
			</output>
		</layer>
		<layer id="187" name="Constant_2102" type="Const" version="opset1">
			<data element_type="i64" shape="" offset="0" size="8" />
			<output>
				<port id="0" precision="I64" />
			</output>
		</layer>
		<layer id="188" name="/Gather_86" type="Gather" version="opset8">
			<data batch_dims="0" />
			<input>
				<port id="0" precision="I64">
					<dim>4</dim>
				</port>
				<port id="1" precision="I64" />
				<port id="2" precision="I64" />
			</input>
			<output>
				<port id="3" precision="I64" names="/Cast_44_output_0,/Gather_86_output_0" />
			</output>
		</layer>
		<layer id="189" name="/Constant_353" type="Const" version="opset1">
			<data element_type="i64" shape="" offset="8" size="8" />
			<output>
				<port id="0" precision="I64" names="/Constant_353_output_0" />
			</output>
		</layer>
		<layer id="190" name="/Range_23" type="Range" version="opset4">
			<data output_type="i64" />
			<input>
				<port id="0" precision="I64" />
				<port id="1" precision="I64" />
				<port id="2" precision="I64" />
			</input>
			<output>
				<port id="3" precision="I64" names="/Range_23_output_0">
					<dim>512</dim>
				</port>
			</output>
		</layer>
		<layer id="191" name="/Add_37" type="Add" version="opset1">
			<data auto_broadcast="numpy" />
			<input>
				<port id="0" precision="I64">
					<dim>1</dim>
					<dim>-1</dim>
					<dim>-1</dim>
					<dim>1</dim>
				</port>
				<port id="1" precision="I64">
					<dim>512</dim>
				</port>
			</input>
			<output>
				<port id="2" precision="I64" names="/Add_37_output_0">
					<dim>1</dim>
					<dim>-1</dim>
					<dim>-1</dim>
					<dim>512</dim>
				</port>
			</output>
		</layer>
		<layer id="192" name="/Shape_115" type="ShapeOf" version="opset3">
			<data output_type="i64" />
			<input>
				<port id="0" precision="I64">
					<dim>1</dim>
					<dim>-1</dim>
					<dim>-1</dim>
					<dim>512</dim>
				</port>
			</input>
			<output>
				<port id="1" precision="I64" names="/Concat_31_output_0,/Shape_115_output_0">
					<dim>4</dim>
				</port>
			</output>
		</layer>
		<layer id="193" name="/Mul_32" type="Const" version="opset1">
			<data element_type="i64" shape="4" offset="72" size="32" />
			<rt_info>
				<attribute name="precise" version="0" />
			</rt_info>
			<output>
				<port id="0" precision="I64" names="/Mul_32_output_0,/Mul_33_output_0,/Mul_34_output_0,/Mul_35_output_0">
					<dim>4</dim>
				</port>
			</output>
		</layer>
		<layer id="194" name="/Equal_24" type="Equal" version="opset1">
			<data auto_broadcast="numpy" />
			<input>
				<port id="0" precision="I64">
					<dim>4</dim>
				</port>
				<port id="1" precision="I64">
					<dim>4</dim>
				</port>
			</input>
			<output>
				<port id="2" precision="BOOL" names="/Equal_24_output_0,/Equal_25_output_0,/Equal_26_output_0,/Equal_27_output_0">
					<dim>4</dim>
				</port>
			</output>
		</layer>
		<layer id="195" name="/ConstantOfShape_24" type="Const" version="opset1">
			<data element_type="i64" shape="4" offset="104" size="32" />
			<rt_info>
				<attribute name="precise" version="0" />
			</rt_info>
			<output>
				<port id="0" precision="I64" names="/ConstantOfShape_24_output_0,/ConstantOfShape_25_output_0,/ConstantOfShape_26_output_0,/ConstantOfShape_27_output_0">
					<dim>4</dim>
				</port>
			</output>
		</layer>
		<layer id="196" name="/Where_24" type="Select" version="opset1">
			<data auto_broadcast="numpy" />
			<input>
				<port id="0" precision="BOOL">
					<dim>4</dim>
				</port>
				<port id="1" precision="I64">
					<dim>4</dim>
				</port>
				<port id="2" precision="I64">
					<dim>4</dim>
				</port>
			</input>
			<output>
				<port id="3" precision="I64" names="/Where_24_output_0,/Where_25_output_0,/Where_26_output_0,/Where_27_output_0">
					<dim>4</dim>
				</port>
			</output>
		</layer>
		<layer id="197" name="/Expand_32" type="Broadcast" version="opset3">
			<data mode="bidirectional" />
			<input>
				<port id="0" precision="I64">
					<dim>1</dim>
					<dim>1</dim>
					<dim>1</dim>
					<dim>1</dim>
				</port>
				<port id="1" precision="I64">
					<dim>4</dim>
				</port>
			</input>
			<output>
				<port id="2" precision="I64" names="/Expand_32_output_0">
					<dim>1</dim>
					<dim>-1</dim>
					<dim>-1</dim>
					<dim>512</dim>
				</port>
			</output>
		</layer>
		<layer id="198" name="/Constant_359" type="Const" version="opset1">
			<data element_type="i64" shape="1" offset="136" size="8" />
			<output>
				<port id="0" precision="I64" names="/Constant_359_output_0">
					<dim>1</dim>
				</port>
			</output>
		</layer>
		<layer id="199" name="/Unsqueeze_74" type="Unsqueeze" version="opset1">
			<input>
				<port id="0" precision="I64">
					<dim>1</dim>
					<dim>-1</dim>
					<dim>-1</dim>
					<dim>512</dim>
				</port>
				<port id="1" precision="I64">
					<dim>1</dim>
				</port>
			</input>
			<output>
				<port id="2" precision="I64" names="/Unsqueeze_74_output_0">
					<dim>1</dim>
					<dim>-1</dim>
					<dim>-1</dim>
					<dim>512</dim>
					<dim>1</dim>
				</port>
			</output>
		</layer>
		<layer id="200" name="/Expand_33" type="Broadcast" version="opset3">
			<data mode="bidirectional" />
			<input>
				<port id="0" precision="I64">
					<dim>-1</dim>
					<dim>1</dim>
					<dim>1</dim>
				</port>
				<port id="1" precision="I64">
					<dim>4</dim>
				</port>
			</input>
			<output>
				<port id="2" precision="I64" names="/Expand_33_output_0">
					<dim>1</dim>
					<dim>-1</dim>
					<dim>-1</dim>
					<dim>512</dim>
				</port>
			</output>
		</layer>
		<layer id="201" name="/Constant_361" type="Const" version="opset1">
			<data element_type="i64" shape="1" offset="136" size="8" />
			<output>
				<port id="0" precision="I64" names="/Constant_361_output_0">
					<dim>1</dim>
				</port>
			</output>
		</layer>
		<layer id="202" name="/Unsqueeze_75" type="Unsqueeze" version="opset1">
			<input>
				<port id="0" precision="I64">
					<dim>1</dim>
					<dim>-1</dim>
					<dim>-1</dim>
					<dim>512</dim>
				</port>
				<port id="1" precision="I64">
					<dim>1</dim>
				</port>
			</input>
			<output>
				<port id="2" precision="I64" names="/Unsqueeze_75_output_0">
					<dim>1</dim>
					<dim>-1</dim>
					<dim>-1</dim>
					<dim>512</dim>
					<dim>1</dim>
				</port>
			</output>
		</layer>
		<layer id="203" name="/Expand_34" type="Broadcast" version="opset3">
			<data mode="bidirectional" />
			<input>
				<port id="0" precision="I64">
					<dim>-1</dim>
					<dim>1</dim>
				</port>
				<port id="1" precision="I64">
					<dim>4</dim>
				</port>
			</input>
			<output>
				<port id="2" precision="I64" names="/Expand_34_output_0">
					<dim>1</dim>
					<dim>-1</dim>
					<dim>-1</dim>
					<dim>512</dim>
				</port>
			</output>
		</layer>
		<layer id="204" name="/Constant_363" type="Const" version="opset1">
			<data element_type="i64" shape="1" offset="136" size="8" />
			<output>
				<port id="0" precision="I64" names="/Constant_363_output_0">
					<dim>1</dim>
				</port>
			</output>
		</layer>
		<layer id="205" name="/Unsqueeze_76" type="Unsqueeze" version="opset1">
			<input>
				<port id="0" precision="I64">
					<dim>1</dim>
					<dim>-1</dim>
					<dim>-1</dim>
					<dim>512</dim>
				</port>
				<port id="1" precision="I64">
					<dim>1</dim>
				</port>
			</input>
			<output>
				<port id="2" precision="I64" names="/Unsqueeze_76_output_0">
					<dim>1</dim>
					<dim>-1</dim>
					<dim>-1</dim>
					<dim>512</dim>
					<dim>1</dim>
				</port>
			</output>
		</layer>
		<layer id="206" name="/Expand_35" type="Broadcast" version="opset3">
			<data mode="bidirectional" />
			<input>
				<port id="0" precision="I64">
					<dim>512</dim>
				</port>
				<port id="1" precision="I64">
					<dim>4</dim>
				</port>
			</input>
			<output>
				<port id="2" precision="I64" names="/Expand_35_output_0">
					<dim>1</dim>
					<dim>-1</dim>
					<dim>-1</dim>
					<dim>512</dim>
				</port>
			</output>
		</layer>
		<layer id="207" name="/Constant_365" type="Const" version="opset1">
			<data element_type="i64" shape="1" offset="136" size="8" />
			<output>
				<port id="0" precision="I64" names="/Constant_365_output_0">
					<dim>1</dim>
				</port>
			</output>
		</layer>
		<layer id="208" name="/Unsqueeze_77" type="Unsqueeze" version="opset1">
			<input>
				<port id="0" precision="I64">
					<dim>1</dim>
					<dim>-1</dim>
					<dim>-1</dim>
					<dim>512</dim>
				</port>
				<port id="1" precision="I64">
					<dim>1</dim>
				</port>
			</input>
			<output>
				<port id="2" precision="I64" names="/Unsqueeze_77_output_0">
					<dim>1</dim>
					<dim>-1</dim>
					<dim>-1</dim>
					<dim>512</dim>
					<dim>1</dim>
				</port>
			</output>
		</layer>
		<layer id="209" name="/Concat_30" type="Concat" version="opset1">
			<data axis="-1" />
			<input>
				<port id="0" precision="I64">
					<dim>1</dim>
					<dim>-1</dim>
					<dim>-1</dim>
					<dim>512</dim>
					<dim>1</dim>
				</port>
				<port id="1" precision="I64">
					<dim>1</dim>
					<dim>-1</dim>
					<dim>-1</dim>
					<dim>512</dim>
					<dim>1</dim>
				</port>
				<port id="2" precision="I64">
					<dim>1</dim>
					<dim>-1</dim>
					<dim>-1</dim>
					<dim>512</dim>
					<dim>1</dim>
				</port>
				<port id="3" precision="I64">
					<dim>1</dim>
					<dim>-1</dim>
					<dim>-1</dim>
					<dim>512</dim>
					<dim>1</dim>
				</port>
			</input>
			<output>
				<port id="4" precision="I64" names="/Concat_30_output_0">
					<dim>1</dim>
					<dim>-1</dim>
					<dim>-1</dim>
					<dim>512</dim>
					<dim>4</dim>
				</port>
			</output>
		</layer>
		<layer id="210" name="/Constant_1" type="Const" version="opset1">
			<data element_type="i64" shape="" offset="8" size="8" />
			<output>
				<port id="0" precision="I64" names="/Constant_1_output_0" />
			</output>
		</layer>
		<layer id="211" name="Constant_1223" type="Const" version="opset1">
			<data element_type="i64" shape="" offset="0" size="8" />
			<output>
				<port id="0" precision="I64" />
			</output>
		</layer>
		<layer id="212" name="/Gather_50" type="Gather" version="opset8">
			<data batch_dims="0" />
			<input>
				<port id="0" precision="FP32">
					<dim>6</dim>
					<dim>-1</dim>
					<dim>448</dim>
					<dim>512</dim>
				</port>
				<port id="1" precision="I64" />
				<port id="2" precision="I64" />
			</input>
			<output>
				<port id="3" precision="FP32" names="/Gather_50_output_0,/Gather_83_output_0">
					<dim>-1</dim>
					<dim>448</dim>
					<dim>512</dim>
				</port>
			</output>
		</layer>
		<layer id="213" name="Constant_16610" type="Const" version="opset1">
			<data element_type="i64" shape="2" offset="144" size="16" />
			<rt_info>
				<attribute name="precise" version="0" />
			</rt_info>
			<output>
				<port id="0" precision="I64">
					<dim>2</dim>
				</port>
			</output>
		</layer>
		<layer id="214" name="Constant_16615" type="Const" version="opset1">
			<data element_type="i64" shape="2" offset="164" size="16" />
			<rt_info>
				<attribute name="precise" version="0" />
			</rt_info>
			<output>
				<port id="0" precision="I64">
					<dim>2</dim>
				</port>
			</output>
		</layer>
		<layer id="215" name="/Slice_20" type="StridedSlice" version="opset1">
			<data begin_mask="1, 0" end_mask="1, 0" new_axis_mask="" shrink_axis_mask="" ellipsis_mask="" />
			<input>
				<port id="0" precision="FP32">
					<dim>-1</dim>
					<dim>448</dim>
					<dim>512</dim>
				</port>
				<port id="1" precision="I64">
					<dim>2</dim>
				</port>
				<port id="2" precision="I64">
					<dim>2</dim>
				</port>
				<port id="3" precision="I64">
					<dim>2</dim>
				</port>
			</input>
			<output>
				<port id="4" precision="FP32" names="/Slice_20_output_0,/Slice_34_output_0">
					<dim>-1</dim>
					<dim>-1</dim>
					<dim>512</dim>
				</port>
			</output>
		</layer>
		<layer id="216" name="/Constant_234" type="Const" version="opset1">
			<data element_type="i64" shape="" offset="0" size="8" />
			<output>
				<port id="0" precision="I64" names="/Constant_234_output_0" />
			</output>
		</layer>
		<layer id="217" name="/Shape_75" type="ShapeOf" version="opset3">
			<data output_type="i64" />
			<input>
				<port id="0" precision="FP32">
					<dim>-1</dim>
					<dim>-1</dim>
					<dim>512</dim>
				</port>
			</input>
			<output>
				<port id="1" precision="I64" names="/Shape_111_output_0,/Shape_75_output_0,/Shape_76_output_0,/Shape_77_output_0,/Shape_82_output_0">
					<dim>3</dim>
				</port>
			</output>
		</layer>
		<layer id="218" name="/Constant_233" type="Const" version="opset1">
			<data element_type="i64" shape="" offset="0" size="8" />
			<output>
				<port id="0" precision="I64" names="/Constant_233_output_0" />
			</output>
		</layer>
		<layer id="219" name="Constant_1440" type="Const" version="opset1">
			<data element_type="i64" shape="" offset="0" size="8" />
			<output>
				<port id="0" precision="I64" />
			</output>
		</layer>
		<layer id="220" name="/Gather_58" type="Gather" version="opset8">
			<data batch_dims="0" />
			<input>
				<port id="0" precision="I64">
					<dim>3</dim>
				</port>
				<port id="1" precision="I64" />
				<port id="2" precision="I64" />
			</input>
			<output>
				<port id="3" precision="I64" names="/Cast_26_output_0,/Gather_58_output_0" />
			</output>
		</layer>
		<layer id="221" name="/Constant_235" type="Const" version="opset1">
			<data element_type="i64" shape="" offset="8" size="8" />
			<output>
				<port id="0" precision="I64" names="/Constant_235_output_0" />
			</output>
		</layer>
		<layer id="222" name="/Range_15" type="Range" version="opset4">
			<data output_type="i64" />
			<input>
				<port id="0" precision="I64" />
				<port id="1" precision="I64" />
				<port id="2" precision="I64" />
			</input>
			<output>
				<port id="3" precision="I64" names="/Range_15_output_0">
					<dim>-1</dim>
				</port>
			</output>
		</layer>
		<layer id="223" name="/Constant_246" type="Const" version="opset1">
			<data element_type="i64" shape="3" offset="16" size="24" />
			<rt_info>
				<attribute name="precise" version="0" />
			</rt_info>
			<output>
				<port id="0" precision="I64" names="/Constant_246_output_0">
					<dim>3</dim>
				</port>
			</output>
		</layer>
		<layer id="224" name="/Reshape_23" type="Reshape" version="opset1">
			<data special_zero="true" />
			<input>
				<port id="0" precision="I64">
					<dim>-1</dim>
				</port>
				<port id="1" precision="I64">
					<dim>3</dim>
				</port>
			</input>
			<output>
				<port id="2" precision="I64" names="/Reshape_23_output_0">
					<dim>-1</dim>
					<dim>1</dim>
					<dim>1</dim>
				</port>
			</output>
		</layer>
		<layer id="225" name="/Constant_237" type="Const" version="opset1">
			<data element_type="i64" shape="" offset="0" size="8" />
			<output>
				<port id="0" precision="I64" names="/Constant_237_output_0" />
			</output>
		</layer>
		<layer id="226" name="/Constant_236" type="Const" version="opset1">
			<data element_type="i64" shape="" offset="8" size="8" />
			<output>
				<port id="0" precision="I64" names="/Constant_236_output_0" />
			</output>
		</layer>
		<layer id="227" name="Constant_1454" type="Const" version="opset1">
			<data element_type="i64" shape="" offset="0" size="8" />
			<output>
				<port id="0" precision="I64" />
			</output>
		</layer>
		<layer id="228" name="/Gather_59" type="Gather" version="opset8">
			<data batch_dims="0" />
			<input>
				<port id="0" precision="I64">
					<dim>3</dim>
				</port>
				<port id="1" precision="I64" />
				<port id="2" precision="I64" />
			</input>
			<output>
				<port id="3" precision="I64" names="/Cast_27_output_0,/Gather_59_output_0" />
			</output>
		</layer>
		<layer id="229" name="/Constant_238" type="Const" version="opset1">
			<data element_type="i64" shape="" offset="8" size="8" />
			<output>
				<port id="0" precision="I64" names="/Constant_238_output_0" />
			</output>
		</layer>
		<layer id="230" name="/Range_16" type="Range" version="opset4">
			<data output_type="i64" />
			<input>
				<port id="0" precision="I64" />
				<port id="1" precision="I64" />
				<port id="2" precision="I64" />
			</input>
			<output>
				<port id="3" precision="I64" names="/Range_16_output_0">
					<dim>-1</dim>
				</port>
			</output>
		</layer>
		<layer id="231" name="Constant_21419_compressed" type="Const" version="opset1">
			<data element_type="f16" shape="1, 1, 512" offset="54096124" size="1024" />
			<output>
				<port id="0" precision="FP16">
					<dim>1</dim>
					<dim>1</dim>
					<dim>512</dim>
				</port>
			</output>
		</layer>
		<layer id="232" name="Constant_21419" type="Convert" version="opset1">
			<data destination_type="f32" />
			<rt_info>
				<attribute name="decompression" version="0" />
			</rt_info>
			<input>
				<port id="0" precision="FP16">
					<dim>1</dim>
					<dim>1</dim>
					<dim>512</dim>
				</port>
			</input>
			<output>
				<port id="1" precision="FP32">
					<dim>1</dim>
					<dim>1</dim>
					<dim>512</dim>
				</port>
			</output>
		</layer>
		<layer id="233" name="Constant_21408_compressed" type="Const" version="opset1">
			<data element_type="f16" shape="1, 1, 512" offset="54097148" size="1024" />
			<output>
				<port id="0" precision="FP16">
					<dim>1</dim>
					<dim>1</dim>
					<dim>512</dim>
				</port>
			</output>
		</layer>
		<layer id="234" name="Constant_21408" type="Convert" version="opset1">
			<data destination_type="f32" />
			<rt_info>
				<attribute name="decompression" version="0" />
			</rt_info>
			<input>
				<port id="0" precision="FP16">
					<dim>1</dim>
					<dim>1</dim>
					<dim>512</dim>
				</port>
			</input>
			<output>
				<port id="1" precision="FP32">
					<dim>1</dim>
					<dim>1</dim>
					<dim>512</dim>
				</port>
			</output>
		</layer>
		<layer id="235" name="Constant_21407_compressed" type="Const" version="opset1">
			<data element_type="f16" shape="1, 1, 512" offset="54098172" size="1024" />
			<output>
				<port id="0" precision="FP16">
					<dim>1</dim>
					<dim>1</dim>
					<dim>512</dim>
				</port>
			</output>
		</layer>
		<layer id="236" name="Constant_21407" type="Convert" version="opset1">
			<data destination_type="f32" />
			<rt_info>
				<attribute name="decompression" version="0" />
			</rt_info>
			<input>
				<port id="0" precision="FP16">
					<dim>1</dim>
					<dim>1</dim>
					<dim>512</dim>
				</port>
			</input>
			<output>
				<port id="1" precision="FP32">
					<dim>1</dim>
					<dim>1</dim>
					<dim>512</dim>
				</port>
			</output>
		</layer>
		<layer id="237" name="Transpose_18255_compressed" type="Const" version="opset1">
			<data element_type="f16" shape="512, 512" offset="54099196" size="524288" />
			<output>
				<port id="0" precision="FP16">
					<dim>512</dim>
					<dim>512</dim>
				</port>
			</output>
		</layer>
		<layer id="238" name="Transpose_18255" type="Convert" version="opset1">
			<data destination_type="f32" />
			<rt_info>
				<attribute name="decompression" version="0" />
			</rt_info>
			<input>
				<port id="0" precision="FP16">
					<dim>512</dim>
					<dim>512</dim>
				</port>
			</input>
			<output>
				<port id="1" precision="FP32">
					<dim>512</dim>
					<dim>512</dim>
				</port>
			</output>
		</layer>
		<layer id="239" name="/query/MatMul" type="MatMul" version="opset1">
			<data transpose_a="false" transpose_b="true" />
			<input>
				<port id="0" precision="FP32">
					<dim>-1</dim>
					<dim>-1</dim>
					<dim>512</dim>
				</port>
				<port id="1" precision="FP32">
					<dim>512</dim>
					<dim>512</dim>
				</port>
			</input>
			<output>
				<port id="2" precision="FP32" names="/query/MatMul_output_0">
					<dim>-1</dim>
					<dim>-1</dim>
					<dim>512</dim>
				</port>
			</output>
		</layer>
		<layer id="240" name="/query/Add" type="Add" version="opset1">
			<data auto_broadcast="numpy" />
			<input>
				<port id="0" precision="FP32">
					<dim>1</dim>
					<dim>1</dim>
					<dim>512</dim>
				</port>
				<port id="1" precision="FP32">
					<dim>-1</dim>
					<dim>-1</dim>
					<dim>512</dim>
				</port>
			</input>
			<output>
				<port id="2" precision="FP32" names="/query/Add_output_0">
					<dim>-1</dim>
					<dim>-1</dim>
					<dim>512</dim>
				</port>
			</output>
		</layer>
		<layer id="241" name="/Concat_4" type="Const" version="opset1">
			<data element_type="i64" shape="4" offset="54623484" size="32" />
			<rt_info>
				<attribute name="precise" version="0" />
			</rt_info>
			<output>
				<port id="0" precision="I64">
					<dim>4</dim>
				</port>
			</output>
		</layer>
		<layer id="242" name="/Reshape_6" type="Reshape" version="opset1">
			<data special_zero="true" />
			<input>
				<port id="0" precision="FP32">
					<dim>-1</dim>
					<dim>-1</dim>
					<dim>512</dim>
				</port>
				<port id="1" precision="I64">
					<dim>4</dim>
				</port>
			</input>
			<output>
				<port id="2" precision="FP32" names="/Reshape_6_output_0">
					<dim>-1</dim>
					<dim>-1</dim>
					<dim>8</dim>
					<dim>64</dim>
				</port>
			</output>
		</layer>
		<layer id="243" name="Constant_575" type="Const" version="opset1">
			<data element_type="i64" shape="4" offset="54623516" size="32" />
			<output>
				<port id="0" precision="I64">
					<dim>4</dim>
				</port>
			</output>
		</layer>
		<layer id="244" name="/Transpose" type="Transpose" version="opset1">
			<input>
				<port id="0" precision="FP32">
					<dim>-1</dim>
					<dim>-1</dim>
					<dim>8</dim>
					<dim>64</dim>
				</port>
				<port id="1" precision="I64">
					<dim>4</dim>
				</port>
			</input>
			<output>
				<port id="2" precision="FP32" names="/Transpose_output_0">
					<dim>-1</dim>
					<dim>8</dim>
					<dim>-1</dim>
					<dim>64</dim>
				</port>
			</output>
		</layer>
		<layer id="245" name="/Shape_23" type="ShapeOf" version="opset3">
			<data output_type="i64" />
			<input>
				<port id="0" precision="FP32">
					<dim>-1</dim>
					<dim>-1</dim>
					<dim>512</dim>
				</port>
			</input>
			<output>
				<port id="1" precision="I64" names="/Shape_23_output_0,/Shape_24_output_0,/Shape_25_output_0">
					<dim>3</dim>
				</port>
			</output>
		</layer>
		<layer id="246" name="/Constant_77" type="Const" version="opset1">
			<data element_type="i64" shape="" offset="40" size="8" />
			<output>
				<port id="0" precision="I64" names="/Constant_77_output_0" />
			</output>
		</layer>
		<layer id="247" name="Constant_552" type="Const" version="opset1">
			<data element_type="i64" shape="" offset="0" size="8" />
			<output>
				<port id="0" precision="I64" />
			</output>
		</layer>
		<layer id="248" name="/Gather_20" type="Gather" version="opset8">
			<data batch_dims="0" />
			<input>
				<port id="0" precision="I64">
					<dim>3</dim>
				</port>
				<port id="1" precision="I64" />
				<port id="2" precision="I64" />
			</input>
			<output>
				<port id="3" precision="I64" names="/Gather_20_output_0" />
			</output>
		</layer>
		<layer id="249" name="/Constant_78" type="Const" version="opset1">
			<data element_type="i64" shape="" offset="54623548" size="8" />
			<output>
				<port id="0" precision="I64" names="/Constant_78_output_0" />
			</output>
		</layer>
		<layer id="250" name="/Div" type="Divide" version="opset1">
			<data auto_broadcast="numpy" m_pythondiv="true" />
			<input>
				<port id="0" precision="I64" />
				<port id="1" precision="I64" />
			</input>
			<output>
				<port id="2" precision="I64" names="/Cast_7_output_0,/Cast_8_output_0,/Div_output_0" />
			</output>
		</layer>
		<layer id="251" name="/Cast_9" type="Convert" version="opset1">
			<data destination_type="f32" />
			<input>
				<port id="0" precision="I64" />
			</input>
			<output>
				<port id="1" precision="FP32" names="/Cast_9_output_0" />
			</output>
		</layer>
		<layer id="252" name="/Constant_79_compressed" type="Const" version="opset1">
			<data element_type="f16" shape="" offset="54623556" size="2" />
			<output>
				<port id="0" precision="FP16" />
			</output>
		</layer>
		<layer id="253" name="/Constant_79" type="Convert" version="opset1">
			<data destination_type="f32" />
			<rt_info>
				<attribute name="decompression" version="0" />
			</rt_info>
			<input>
				<port id="0" precision="FP16" />
			</input>
			<output>
				<port id="1" precision="FP32" names="/Constant_79_output_0" />
			</output>
		</layer>
		<layer id="254" name="/Pow" type="Power" version="opset1">
			<data auto_broadcast="numpy" />
			<input>
				<port id="0" precision="FP32" />
				<port id="1" precision="FP32" />
			</input>
			<output>
				<port id="2" precision="FP32" names="/Pow_output_0" />
			</output>
		</layer>
		<layer id="255" name="/Mul_6" type="Multiply" version="opset1">
			<data auto_broadcast="numpy" />
			<input>
				<port id="0" precision="FP32">
					<dim>-1</dim>
					<dim>8</dim>
					<dim>-1</dim>
					<dim>64</dim>
				</port>
				<port id="1" precision="FP32" />
			</input>
			<output>
				<port id="2" precision="FP32" names="/Mul_6_output_0">
					<dim>-1</dim>
					<dim>8</dim>
					<dim>-1</dim>
					<dim>64</dim>
				</port>
			</output>
		</layer>
		<layer id="256" name="Constant_166" type="Const" version="opset1">
			<data element_type="i64" shape="" offset="0" size="8" />
			<output>
				<port id="0" precision="I64" />
			</output>
		</layer>
		<layer id="257" name="/Gather_5" type="Gather" version="opset8">
			<data batch_dims="0" />
			<input>
				<port id="0" precision="FP32">
					<dim>6</dim>
					<dim>-1</dim>
					<dim>448</dim>
					<dim>512</dim>
				</port>
				<port id="1" precision="I64" />
				<port id="2" precision="I64" />
			</input>
			<output>
				<port id="3" precision="FP32" names="/Gather_35_output_0,/Gather_5_output_0">
					<dim>-1</dim>
					<dim>448</dim>
					<dim>512</dim>
				</port>
			</output>
		</layer>
		<layer id="258" name="Constant_16621" type="Const" version="opset1">
			<data element_type="i64" shape="2" offset="144" size="16" />
			<rt_info>
				<attribute name="precise" version="0" />
			</rt_info>
			<output>
				<port id="0" precision="I64">
					<dim>2</dim>
				</port>
			</output>
		</layer>
		<layer id="259" name="Constant_16626" type="Const" version="opset1">
			<data element_type="i64" shape="2" offset="164" size="16" />
			<rt_info>
				<attribute name="precise" version="0" />
			</rt_info>
			<output>
				<port id="0" precision="I64">
					<dim>2</dim>
				</port>
			</output>
		</layer>
		<layer id="260" name="/Slice_1" type="StridedSlice" version="opset1">
			<data begin_mask="1, 0" end_mask="1, 0" new_axis_mask="" shrink_axis_mask="" ellipsis_mask="" />
			<input>
				<port id="0" precision="FP32">
					<dim>-1</dim>
					<dim>448</dim>
					<dim>512</dim>
				</port>
				<port id="1" precision="I64">
					<dim>2</dim>
				</port>
				<port id="2" precision="I64">
					<dim>2</dim>
				</port>
				<port id="3" precision="I64">
					<dim>2</dim>
				</port>
			</input>
			<output>
				<port id="4" precision="FP32" names="/Slice_13_output_0,/Slice_1_output_0">
					<dim>-1</dim>
					<dim>-1</dim>
					<dim>512</dim>
				</port>
			</output>
		</layer>
		<layer id="261" name="/Constant_24" type="Const" version="opset1">
			<data element_type="i64" shape="" offset="0" size="8" />
			<output>
				<port id="0" precision="I64" names="/Constant_24_output_0" />
			</output>
		</layer>
		<layer id="262" name="/Shape_5" type="ShapeOf" version="opset3">
			<data output_type="i64" />
			<input>
				<port id="0" precision="FP32">
					<dim>-1</dim>
					<dim>-1</dim>
					<dim>512</dim>
				</port>
			</input>
			<output>
				<port id="1" precision="I64" names="/Shape_12_output_0,/Shape_40_output_0,/Shape_5_output_0,/Shape_6_output_0,/Shape_7_output_0">
					<dim>3</dim>
				</port>
			</output>
		</layer>
		<layer id="263" name="/Constant_23" type="Const" version="opset1">
			<data element_type="i64" shape="" offset="0" size="8" />
			<output>
				<port id="0" precision="I64" names="/Constant_23_output_0" />
			</output>
		</layer>
		<layer id="264" name="Constant_233" type="Const" version="opset1">
			<data element_type="i64" shape="" offset="0" size="8" />
			<output>
				<port id="0" precision="I64" />
			</output>
		</layer>
		<layer id="265" name="/Gather_12" type="Gather" version="opset8">
			<data batch_dims="0" />
			<input>
				<port id="0" precision="I64">
					<dim>3</dim>
				</port>
				<port id="1" precision="I64" />
				<port id="2" precision="I64" />
			</input>
			<output>
				<port id="3" precision="I64" names="/Cast_1_output_0,/Gather_12_output_0" />
			</output>
		</layer>
		<layer id="266" name="/Constant_25" type="Const" version="opset1">
			<data element_type="i64" shape="" offset="8" size="8" />
			<output>
				<port id="0" precision="I64" names="/Constant_25_output_0" />
			</output>
		</layer>
		<layer id="267" name="/Range" type="Range" version="opset4">
			<data output_type="i64" />
			<input>
				<port id="0" precision="I64" />
				<port id="1" precision="I64" />
				<port id="2" precision="I64" />
			</input>
			<output>
				<port id="3" precision="I64" names="/Range_output_0">
					<dim>-1</dim>
				</port>
			</output>
		</layer>
		<layer id="268" name="/Constant_36" type="Const" version="opset1">
			<data element_type="i64" shape="3" offset="16" size="24" />
			<rt_info>
				<attribute name="precise" version="0" />
			</rt_info>
			<output>
				<port id="0" precision="I64" names="/Constant_36_output_0">
					<dim>3</dim>
				</port>
			</output>
		</layer>
		<layer id="269" name="/Reshape" type="Reshape" version="opset1">
			<data special_zero="true" />
			<input>
				<port id="0" precision="I64">
					<dim>-1</dim>
				</port>
				<port id="1" precision="I64">
					<dim>3</dim>
				</port>
			</input>
			<output>
				<port id="2" precision="I64" names="/Reshape_output_0">
					<dim>-1</dim>
					<dim>1</dim>
					<dim>1</dim>
				</port>
			</output>
		</layer>
		<layer id="270" name="/Constant_27" type="Const" version="opset1">
			<data element_type="i64" shape="" offset="0" size="8" />
			<output>
				<port id="0" precision="I64" names="/Constant_27_output_0" />
			</output>
		</layer>
		<layer id="271" name="/Constant_26" type="Const" version="opset1">
			<data element_type="i64" shape="" offset="8" size="8" />
			<output>
				<port id="0" precision="I64" names="/Constant_26_output_0" />
			</output>
		</layer>
		<layer id="272" name="Constant_247" type="Const" version="opset1">
			<data element_type="i64" shape="" offset="0" size="8" />
			<output>
				<port id="0" precision="I64" />
			</output>
		</layer>
		<layer id="273" name="/Gather_13" type="Gather" version="opset8">
			<data batch_dims="0" />
			<input>
				<port id="0" precision="I64">
					<dim>3</dim>
				</port>
				<port id="1" precision="I64" />
				<port id="2" precision="I64" />
			</input>
			<output>
				<port id="3" precision="I64" names="/Cast_2_output_0,/Gather_13_output_0" />
			</output>
		</layer>
		<layer id="274" name="/Constant_28" type="Const" version="opset1">
			<data element_type="i64" shape="" offset="8" size="8" />
			<output>
				<port id="0" precision="I64" names="/Constant_28_output_0" />
			</output>
		</layer>
		<layer id="275" name="/Range_1" type="Range" version="opset4">
			<data output_type="i64" />
			<input>
				<port id="0" precision="I64" />
				<port id="1" precision="I64" />
				<port id="2" precision="I64" />
			</input>
			<output>
				<port id="3" precision="I64" names="/Range_1_output_0">
					<dim>-1</dim>
				</port>
			</output>
		</layer>
		<layer id="276" name="Transpose_18264_compressed" type="Const" version="opset1">
			<data element_type="f16" shape="512, 512" offset="54623558" size="524288" />
			<output>
				<port id="0" precision="FP16">
					<dim>512</dim>
					<dim>512</dim>
				</port>
			</output>
		</layer>
		<layer id="277" name="Transpose_18264" type="Convert" version="opset1">
			<data destination_type="f32" />
			<rt_info>
				<attribute name="decompression" version="0" />
			</rt_info>
			<input>
				<port id="0" precision="FP16">
					<dim>512</dim>
					<dim>512</dim>
				</port>
			</input>
			<output>
				<port id="1" precision="FP32">
					<dim>512</dim>
					<dim>512</dim>
				</port>
			</output>
		</layer>
		<layer id="278" name="/key/MatMul" type="MatMul" version="opset1">
			<data transpose_a="false" transpose_b="true" />
			<input>
				<port id="0" precision="FP32">
					<dim>-1</dim>
					<dim>-1</dim>
					<dim>512</dim>
				</port>
				<port id="1" precision="FP32">
					<dim>512</dim>
					<dim>512</dim>
				</port>
			</input>
			<output>
				<port id="2" precision="FP32" names="/key/MatMul_output_0">
					<dim>-1</dim>
					<dim>-1</dim>
					<dim>512</dim>
				</port>
			</output>
		</layer>
		<layer id="279" name="/Shape_3" type="ShapeOf" version="opset3">
			<data output_type="i64" />
			<input>
				<port id="0" precision="FP32">
					<dim>-1</dim>
					<dim>-1</dim>
					<dim>512</dim>
				</port>
			</input>
			<output>
				<port id="1" precision="I64" names="/Shape_3_output_0">
					<dim>3</dim>
				</port>
			</output>
		</layer>
		<layer id="280" name="/Constant_18" type="Const" version="opset1">
			<data element_type="i64" shape="" offset="8" size="8" />
			<rt_info>
				<attribute name="precise" version="0" />
			</rt_info>
			<output>
				<port id="0" precision="I64" names="/Constant_18_output_0" />
			</output>
		</layer>
		<layer id="281" name="Constant_216" type="Const" version="opset1">
			<data element_type="i64" shape="" offset="0" size="8" />
			<rt_info>
				<attribute name="precise" version="0" />
			</rt_info>
			<output>
				<port id="0" precision="I64" />
			</output>
		</layer>
		<layer id="282" name="/Gather_11" type="Gather" version="opset8">
			<data batch_dims="0" />
			<input>
				<port id="0" precision="I64">
					<dim>3</dim>
				</port>
				<port id="1" precision="I64" />
				<port id="2" precision="I64" />
			</input>
			<output>
				<port id="3" precision="I64" names="/Gather_11_output_0" />
			</output>
		</layer>
		<layer id="283" name="Constant_18973" type="Const" version="opset1">
			<data element_type="i64" shape="" offset="136" size="8" />
			<rt_info>
				<attribute name="precise" version="0" />
			</rt_info>
			<output>
				<port id="0" precision="I64" />
			</output>
		</layer>
		<layer id="284" name="/Neg" type="Multiply" version="opset1">
			<data auto_broadcast="numpy" />
			<input>
				<port id="0" precision="I64" />
				<port id="1" precision="I64" />
			</input>
			<output>
				<port id="2" precision="I64" names="/Neg_output_0" />
			</output>
		</layer>
		<layer id="285" name="/Constant_19" type="Const" version="opset1">
			<data element_type="i64" shape="1" offset="0" size="8" />
			<rt_info>
				<attribute name="precise" version="0" />
			</rt_info>
			<output>
				<port id="0" precision="I64" names="/Constant_19_output_0">
					<dim>1</dim>
				</port>
			</output>
		</layer>
		<layer id="286" name="/Unsqueeze_4" type="Unsqueeze" version="opset1">
			<input>
				<port id="0" precision="I64" />
				<port id="1" precision="I64">
					<dim>1</dim>
				</port>
			</input>
			<output>
				<port id="2" precision="I64" names="/Unsqueeze_4_output_0,/Unsqueeze_5_output_0">
					<dim>1</dim>
				</port>
			</output>
		</layer>
		<layer id="287" name="/Constant_30" type="Const" version="opset1">
			<data element_type="i64" shape="1" offset="54096052" size="8" />
			<rt_info>
				<attribute name="precise" version="0" />
			</rt_info>
			<output>
				<port id="0" precision="I64" names="/Constant_30_output_0">
					<dim>1</dim>
				</port>
			</output>
		</layer>
		<layer id="288" name="/Constant_32" type="Const" version="opset1">
			<data element_type="i64" shape="1" offset="8" size="8" />
			<rt_info>
				<attribute name="precise" version="0" />
			</rt_info>
			<output>
				<port id="0" precision="I64" names="/Constant_32_output_0">
					<dim>1</dim>
				</port>
			</output>
		</layer>
		<layer id="289" name="/Slice_4" type="StridedSlice" version="opset1">
			<data begin_mask="0" end_mask="0" new_axis_mask="" shrink_axis_mask="" ellipsis_mask="" />
			<input>
				<port id="0" precision="I64">
					<dim>-1</dim>
				</port>
				<port id="1" precision="I64">
					<dim>1</dim>
				</port>
				<port id="2" precision="I64">
					<dim>1</dim>
				</port>
				<port id="3" precision="I64">
					<dim>1</dim>
				</port>
			</input>
			<output>
				<port id="4" precision="I64" names="/Slice_4_output_0">
					<dim>-1</dim>
				</port>
			</output>
		</layer>
		<layer id="290" name="/Constant_37" type="Const" version="opset1">
			<data element_type="i64" shape="2" offset="48" size="16" />
			<rt_info>
				<attribute name="precise" version="0" />
			</rt_info>
			<output>
				<port id="0" precision="I64" names="/Constant_37_output_0">
					<dim>2</dim>
				</port>
			</output>
		</layer>
		<layer id="291" name="/Reshape_1" type="Reshape" version="opset1">
			<data special_zero="true" />
			<input>
				<port id="0" precision="I64">
					<dim>-1</dim>
				</port>
				<port id="1" precision="I64">
					<dim>2</dim>
				</port>
			</input>
			<output>
				<port id="2" precision="I64" names="/Reshape_1_output_0">
					<dim>-1</dim>
					<dim>1</dim>
				</port>
			</output>
		</layer>
		<layer id="292" name="/Add_4" type="Add" version="opset1">
			<data auto_broadcast="numpy" />
			<input>
				<port id="0" precision="I64">
					<dim>-1</dim>
					<dim>1</dim>
					<dim>1</dim>
				</port>
				<port id="1" precision="I64">
					<dim>-1</dim>
					<dim>1</dim>
				</port>
			</input>
			<output>
				<port id="2" precision="I64" names="/Add_4_output_0">
					<dim>-1</dim>
					<dim>-1</dim>
					<dim>1</dim>
				</port>
			</output>
		</layer>
		<layer id="293" name="/Constant_34" type="Const" version="opset1">
			<data element_type="i64" shape="" offset="0" size="8" />
			<output>
				<port id="0" precision="I64" names="/Constant_34_output_0" />
			</output>
		</layer>
		<layer id="294" name="/Constant_33" type="Const" version="opset1">
			<data element_type="i64" shape="" offset="40" size="8" />
			<output>
				<port id="0" precision="I64" names="/Constant_33_output_0" />
			</output>
		</layer>
		<layer id="295" name="Constant_268" type="Const" version="opset1">
			<data element_type="i64" shape="" offset="0" size="8" />
			<output>
				<port id="0" precision="I64" />
			</output>
		</layer>
		<layer id="296" name="/Gather_14" type="Gather" version="opset8">
			<data batch_dims="0" />
			<input>
				<port id="0" precision="I64">
					<dim>3</dim>
				</port>
				<port id="1" precision="I64" />
				<port id="2" precision="I64" />
			</input>
			<output>
				<port id="3" precision="I64" names="/Cast_3_output_0,/Gather_14_output_0" />
			</output>
		</layer>
		<layer id="297" name="/Constant_35" type="Const" version="opset1">
			<data element_type="i64" shape="" offset="8" size="8" />
			<output>
				<port id="0" precision="I64" names="/Constant_35_output_0" />
			</output>
		</layer>
		<layer id="298" name="/Range_2" type="Range" version="opset4">
			<data output_type="i64" />
			<input>
				<port id="0" precision="I64" />
				<port id="1" precision="I64" />
				<port id="2" precision="I64" />
			</input>
			<output>
				<port id="3" precision="I64" names="/Range_2_output_0">
					<dim>512</dim>
				</port>
			</output>
		</layer>
		<layer id="299" name="/Add_5" type="Add" version="opset1">
			<data auto_broadcast="numpy" />
			<input>
				<port id="0" precision="I64">
					<dim>-1</dim>
					<dim>-1</dim>
					<dim>1</dim>
				</port>
				<port id="1" precision="I64">
					<dim>512</dim>
				</port>
			</input>
			<output>
				<port id="2" precision="I64" names="/Add_5_output_0">
					<dim>-1</dim>
					<dim>-1</dim>
					<dim>512</dim>
				</port>
			</output>
		</layer>
		<layer id="300" name="/Shape_8" type="ShapeOf" version="opset3">
			<data output_type="i64" />
			<input>
				<port id="0" precision="I64">
					<dim>-1</dim>
					<dim>-1</dim>
					<dim>512</dim>
				</port>
			</input>
			<output>
				<port id="1" precision="I64" names="/Concat_1_output_0,/Shape_8_output_0">
					<dim>3</dim>
				</port>
			</output>
		</layer>
		<layer id="301" name="/Mul" type="Const" version="opset1">
			<data element_type="i64" shape="3" offset="54096060" size="24" />
			<rt_info>
				<attribute name="precise" version="0" />
			</rt_info>
			<output>
				<port id="0" precision="I64" names="/Mul_1_output_0,/Mul_2_output_0,/Mul_output_0">
					<dim>3</dim>
				</port>
			</output>
		</layer>
		<layer id="302" name="/Equal" type="Equal" version="opset1">
			<data auto_broadcast="numpy" />
			<input>
				<port id="0" precision="I64">
					<dim>3</dim>
				</port>
				<port id="1" precision="I64">
					<dim>3</dim>
				</port>
			</input>
			<output>
				<port id="2" precision="BOOL" names="/Equal_1_output_0,/Equal_2_output_0,/Equal_output_0">
					<dim>3</dim>
				</port>
			</output>
		</layer>
		<layer id="303" name="/ConstantOfShape" type="Const" version="opset1">
			<data element_type="i64" shape="3" offset="54096084" size="24" />
			<rt_info>
				<attribute name="precise" version="0" />
			</rt_info>
			<output>
				<port id="0" precision="I64" names="/ConstantOfShape_1_output_0,/ConstantOfShape_2_output_0,/ConstantOfShape_output_0">
					<dim>3</dim>
				</port>
			</output>
		</layer>
		<layer id="304" name="/Where" type="Select" version="opset1">
			<data auto_broadcast="numpy" />
			<input>
				<port id="0" precision="BOOL">
					<dim>3</dim>
				</port>
				<port id="1" precision="I64">
					<dim>3</dim>
				</port>
				<port id="2" precision="I64">
					<dim>3</dim>
				</port>
			</input>
			<output>
				<port id="3" precision="I64" names="/Where_1_output_0,/Where_2_output_0,/Where_output_0">
					<dim>3</dim>
				</port>
			</output>
		</layer>
		<layer id="305" name="/Expand_1" type="Broadcast" version="opset3">
			<data mode="bidirectional" />
			<input>
				<port id="0" precision="I64">
					<dim>-1</dim>
					<dim>1</dim>
					<dim>1</dim>
				</port>
				<port id="1" precision="I64">
					<dim>3</dim>
				</port>
			</input>
			<output>
				<port id="2" precision="I64" names="/Expand_1_output_0">
					<dim>-1</dim>
					<dim>-1</dim>
					<dim>512</dim>
				</port>
			</output>
		</layer>
		<layer id="306" name="/Constant_39" type="Const" version="opset1">
			<data element_type="i64" shape="1" offset="136" size="8" />
			<output>
				<port id="0" precision="I64" names="/Constant_39_output_0">
					<dim>1</dim>
				</port>
			</output>
		</layer>
		<layer id="307" name="/Unsqueeze_6" type="Unsqueeze" version="opset1">
			<input>
				<port id="0" precision="I64">
					<dim>-1</dim>
					<dim>-1</dim>
					<dim>512</dim>
				</port>
				<port id="1" precision="I64">
					<dim>1</dim>
				</port>
			</input>
			<output>
				<port id="2" precision="I64" names="/Unsqueeze_6_output_0">
					<dim>-1</dim>
					<dim>-1</dim>
					<dim>512</dim>
					<dim>1</dim>
				</port>
			</output>
		</layer>
		<layer id="308" name="/Expand_2" type="Broadcast" version="opset3">
			<data mode="bidirectional" />
			<input>
				<port id="0" precision="I64">
					<dim>-1</dim>
					<dim>1</dim>
				</port>
				<port id="1" precision="I64">
					<dim>3</dim>
				</port>
			</input>
			<output>
				<port id="2" precision="I64" names="/Expand_2_output_0">
					<dim>-1</dim>
					<dim>-1</dim>
					<dim>512</dim>
				</port>
			</output>
		</layer>
		<layer id="309" name="/Constant_41" type="Const" version="opset1">
			<data element_type="i64" shape="1" offset="136" size="8" />
			<output>
				<port id="0" precision="I64" names="/Constant_41_output_0">
					<dim>1</dim>
				</port>
			</output>
		</layer>
		<layer id="310" name="/Unsqueeze_7" type="Unsqueeze" version="opset1">
			<input>
				<port id="0" precision="I64">
					<dim>-1</dim>
					<dim>-1</dim>
					<dim>512</dim>
				</port>
				<port id="1" precision="I64">
					<dim>1</dim>
				</port>
			</input>
			<output>
				<port id="2" precision="I64" names="/Unsqueeze_7_output_0">
					<dim>-1</dim>
					<dim>-1</dim>
					<dim>512</dim>
					<dim>1</dim>
				</port>
			</output>
		</layer>
		<layer id="311" name="/Expand_3" type="Broadcast" version="opset3">
			<data mode="bidirectional" />
			<input>
				<port id="0" precision="I64">
					<dim>512</dim>
				</port>
				<port id="1" precision="I64">
					<dim>3</dim>
				</port>
			</input>
			<output>
				<port id="2" precision="I64" names="/Expand_3_output_0">
					<dim>-1</dim>
					<dim>-1</dim>
					<dim>512</dim>
				</port>
			</output>
		</layer>
		<layer id="312" name="/Constant_43" type="Const" version="opset1">
			<data element_type="i64" shape="1" offset="136" size="8" />
			<output>
				<port id="0" precision="I64" names="/Constant_43_output_0">
					<dim>1</dim>
				</port>
			</output>
		</layer>
		<layer id="313" name="/Unsqueeze_8" type="Unsqueeze" version="opset1">
			<input>
				<port id="0" precision="I64">
					<dim>-1</dim>
					<dim>-1</dim>
					<dim>512</dim>
				</port>
				<port id="1" precision="I64">
					<dim>1</dim>
				</port>
			</input>
			<output>
				<port id="2" precision="I64" names="/Unsqueeze_8_output_0">
					<dim>-1</dim>
					<dim>-1</dim>
					<dim>512</dim>
					<dim>1</dim>
				</port>
			</output>
		</layer>
		<layer id="314" name="/Concat" type="Concat" version="opset1">
			<data axis="-1" />
			<input>
				<port id="0" precision="I64">
					<dim>-1</dim>
					<dim>-1</dim>
					<dim>512</dim>
					<dim>1</dim>
				</port>
				<port id="1" precision="I64">
					<dim>-1</dim>
					<dim>-1</dim>
					<dim>512</dim>
					<dim>1</dim>
				</port>
				<port id="2" precision="I64">
					<dim>-1</dim>
					<dim>-1</dim>
					<dim>512</dim>
					<dim>1</dim>
				</port>
			</input>
			<output>
				<port id="3" precision="I64" names="/Concat_output_0">
					<dim>-1</dim>
					<dim>-1</dim>
					<dim>512</dim>
					<dim>3</dim>
				</port>
			</output>
		</layer>
		<layer id="315" name="Constant_16632" type="Const" version="opset1">
			<data element_type="i64" shape="2" offset="144" size="16" />
			<output>
				<port id="0" precision="I64">
					<dim>2</dim>
				</port>
			</output>
		</layer>
		<layer id="316" name="Constant_16631" type="Const" version="opset1">
			<data element_type="i64" shape="1" offset="8" size="8" />
			<output>
				<port id="0" precision="I64">
					<dim>1</dim>
				</port>
			</output>
		</layer>
		<layer id="317" name="Constant_16630" type="Const" version="opset1">
			<data element_type="i32" shape="1" offset="160" size="4" />
			<output>
				<port id="0" precision="I32">
					<dim>1</dim>
				</port>
			</output>
		</layer>
		<layer id="318" name="ScatterUpdate_16633" type="ScatterUpdate" version="opset3">
			<input>
				<port id="0" precision="I64">
					<dim>2</dim>
				</port>
				<port id="1" precision="I64">
					<dim>1</dim>
				</port>
				<port id="2" precision="I64">
					<dim>1</dim>
				</port>
				<port id="3" precision="I32">
					<dim>1</dim>
				</port>
			</input>
			<output>
				<port id="4" precision="I64">
					<dim>2</dim>
				</port>
			</output>
		</layer>
		<layer id="319" name="Constant_16636" type="Const" version="opset1">
			<data element_type="i64" shape="2" offset="54096108" size="16" />
			<output>
				<port id="0" precision="I64">
					<dim>2</dim>
				</port>
			</output>
		</layer>
		<layer id="320" name="Constant_16639" type="Const" version="opset1">
			<data element_type="i64" shape="2" offset="164" size="16" />
			<output>
				<port id="0" precision="I64">
					<dim>2</dim>
				</port>
			</output>
		</layer>
		<layer id="321" name="/Slice_3" type="StridedSlice" version="opset1">
			<data begin_mask="1, 0" end_mask="1, 0" new_axis_mask="" shrink_axis_mask="" ellipsis_mask="" />
			<input>
				<port id="0" precision="FP32">
					<dim>-1</dim>
					<dim>-1</dim>
					<dim>512</dim>
				</port>
				<port id="1" precision="I64">
					<dim>2</dim>
				</port>
				<port id="2" precision="I64">
					<dim>2</dim>
				</port>
				<port id="3" precision="I64">
					<dim>2</dim>
				</port>
			</input>
			<output>
				<port id="4" precision="FP32" names="/Slice_3_output_0">
					<dim>-1</dim>
					<dim>-1</dim>
					<dim>512</dim>
				</port>
			</output>
		</layer>
		<layer id="322" name="/Shape_4" type="ShapeOf" version="opset3">
			<data output_type="i64" />
			<input>
				<port id="0" precision="FP32">
					<dim>-1</dim>
					<dim>-1</dim>
					<dim>512</dim>
				</port>
			</input>
			<output>
				<port id="1" precision="I64" names="/Shape_4_output_0">
					<dim>3</dim>
				</port>
			</output>
		</layer>
		<layer id="323" name="/Expand" type="Broadcast" version="opset3">
			<data mode="bidirectional" />
			<input>
				<port id="0" precision="FP32">
					<dim>-1</dim>
					<dim>-1</dim>
					<dim>512</dim>
				</port>
				<port id="1" precision="I64">
					<dim>3</dim>
				</port>
			</input>
			<output>
				<port id="2" precision="FP32" names="/Expand_output_0">
					<dim>-1</dim>
					<dim>-1</dim>
					<dim>512</dim>
				</port>
			</output>
		</layer>
		<layer id="324" name="/Reshape_2" type="Reshape" version="opset1">
			<data special_zero="true" />
			<input>
				<port id="0" precision="FP32">
					<dim>-1</dim>
					<dim>-1</dim>
					<dim>512</dim>
				</port>
				<port id="1" precision="I64">
					<dim>3</dim>
				</port>
			</input>
			<output>
				<port id="2" precision="FP32" names="/Reshape_2_output_0">
					<dim>-1</dim>
					<dim>-1</dim>
					<dim>512</dim>
				</port>
			</output>
		</layer>
		<layer id="325" name="/ScatterND" type="ScatterNDUpdate" version="opset4">
			<input>
				<port id="0" precision="FP32">
					<dim>-1</dim>
					<dim>-1</dim>
					<dim>512</dim>
				</port>
				<port id="1" precision="I64">
					<dim>-1</dim>
					<dim>-1</dim>
					<dim>512</dim>
					<dim>3</dim>
				</port>
				<port id="2" precision="FP32">
					<dim>-1</dim>
					<dim>-1</dim>
					<dim>512</dim>
				</port>
			</input>
			<output>
				<port id="3" precision="FP32" names="/ScatterND_output_0">
					<dim>-1</dim>
					<dim>-1</dim>
					<dim>512</dim>
				</port>
			</output>
		</layer>
		<layer id="326" name="/Concat_5" type="Const" version="opset1">
			<data element_type="i64" shape="4" offset="54623484" size="32" />
			<rt_info>
				<attribute name="precise" version="0" />
			</rt_info>
			<output>
				<port id="0" precision="I64">
					<dim>4</dim>
				</port>
			</output>
		</layer>
		<layer id="327" name="/Reshape_7" type="Reshape" version="opset1">
			<data special_zero="true" />
			<input>
				<port id="0" precision="FP32">
					<dim>-1</dim>
					<dim>-1</dim>
					<dim>512</dim>
				</port>
				<port id="1" precision="I64">
					<dim>4</dim>
				</port>
			</input>
			<output>
				<port id="2" precision="FP32" names="/Reshape_7_output_0">
					<dim>-1</dim>
					<dim>-1</dim>
					<dim>8</dim>
					<dim>64</dim>
				</port>
			</output>
		</layer>
		<layer id="328" name="Constant_596" type="Const" version="opset1">
			<data element_type="i64" shape="4" offset="55147846" size="32" />
			<output>
				<port id="0" precision="I64">
					<dim>4</dim>
				</port>
			</output>
		</layer>
		<layer id="329" name="/Transpose_1" type="Transpose" version="opset1">
			<input>
				<port id="0" precision="FP32">
					<dim>-1</dim>
					<dim>-1</dim>
					<dim>8</dim>
					<dim>64</dim>
				</port>
				<port id="1" precision="I64">
					<dim>4</dim>
				</port>
			</input>
			<output>
				<port id="2" precision="FP32" names="/Transpose_1_output_0">
					<dim>-1</dim>
					<dim>8</dim>
					<dim>64</dim>
					<dim>-1</dim>
				</port>
			</output>
		</layer>
		<layer id="330" name="/Mul_7" type="Multiply" version="opset1">
			<data auto_broadcast="numpy" />
			<input>
				<port id="0" precision="FP32">
					<dim>-1</dim>
					<dim>8</dim>
					<dim>64</dim>
					<dim>-1</dim>
				</port>
				<port id="1" precision="FP32" />
			</input>
			<output>
				<port id="2" precision="FP32" names="/Mul_7_output_0">
					<dim>-1</dim>
					<dim>8</dim>
					<dim>64</dim>
					<dim>-1</dim>
				</port>
			</output>
		</layer>
		<layer id="331" name="/MatMul" type="MatMul" version="opset1">
			<data transpose_a="false" transpose_b="false" />
			<input>
				<port id="0" precision="FP32">
					<dim>-1</dim>
					<dim>8</dim>
					<dim>-1</dim>
					<dim>64</dim>
				</port>
				<port id="1" precision="FP32">
					<dim>-1</dim>
					<dim>8</dim>
					<dim>64</dim>
					<dim>-1</dim>
				</port>
			</input>
			<output>
				<port id="2" precision="FP32" names="/MatMul_output_0">
					<dim>-1</dim>
					<dim>8</dim>
					<dim>-1</dim>
					<dim>-1</dim>
				</port>
			</output>
		</layer>
		<layer id="332" name="/Constant_91_compressed" type="Const" version="opset1">
			<data element_type="f16" shape="448, 448" offset="55147878" size="401408" />
			<output>
				<port id="0" precision="FP16">
					<dim>448</dim>
					<dim>448</dim>
				</port>
			</output>
		</layer>
		<layer id="333" name="/Constant_91" type="Convert" version="opset1">
			<data destination_type="f32" />
			<rt_info>
				<attribute name="decompression" version="0" />
			</rt_info>
			<input>
				<port id="0" precision="FP16">
					<dim>448</dim>
					<dim>448</dim>
				</port>
			</input>
			<output>
				<port id="1" precision="FP32" names="/Constant_91_output_0">
					<dim>448</dim>
					<dim>448</dim>
				</port>
			</output>
		</layer>
		<layer id="334" name="/Constant_92" type="Const" version="opset1">
			<data element_type="i64" shape="1" offset="0" size="8" />
			<rt_info>
				<attribute name="precise" version="0" />
			</rt_info>
			<output>
				<port id="0" precision="I64" names="/Constant_92_output_0">
					<dim>1</dim>
				</port>
			</output>
		</layer>
		<layer id="335" name="Constant_14986" type="Const" version="opset1">
			<data element_type="i64" shape="1" offset="8" size="8" />
			<rt_info>
				<attribute name="precise" version="0" />
			</rt_info>
			<output>
				<port id="0" precision="I64">
					<dim>1</dim>
				</port>
			</output>
		</layer>
		<layer id="336" name="Constant_548" type="Const" version="opset1">
			<data element_type="i64" shape="" offset="0" size="8" />
			<rt_info>
				<attribute name="precise" version="0" />
			</rt_info>
			<output>
				<port id="0" precision="I64" />
			</output>
		</layer>
		<layer id="337" name="/Gather_19" type="Gather" version="opset8">
			<data batch_dims="0" />
			<input>
				<port id="0" precision="I64">
					<dim>3</dim>
				</port>
				<port id="1" precision="I64">
					<dim>1</dim>
				</port>
				<port id="2" precision="I64" />
			</input>
			<output>
				<port id="3" precision="I64" names="/Gather_19_output_0,/Unsqueeze_15_output_0,/Unsqueeze_20_output_0,/Unsqueeze_21_output_0">
					<dim>1</dim>
				</port>
			</output>
		</layer>
		<layer id="338" name="/Constant_95" type="Const" version="opset1">
			<data element_type="i64" shape="1" offset="8" size="8" />
			<rt_info>
				<attribute name="precise" version="0" />
			</rt_info>
			<output>
				<port id="0" precision="I64" names="/Constant_95_output_0">
					<dim>1</dim>
				</port>
			</output>
		</layer>
		<layer id="339" name="/Slice_9" type="StridedSlice" version="opset1">
			<data begin_mask="0" end_mask="0" new_axis_mask="" shrink_axis_mask="" ellipsis_mask="" />
			<input>
				<port id="0" precision="FP32">
					<dim>448</dim>
					<dim>448</dim>
				</port>
				<port id="1" precision="I64">
					<dim>1</dim>
				</port>
				<port id="2" precision="I64">
					<dim>1</dim>
				</port>
				<port id="3" precision="I64">
					<dim>1</dim>
				</port>
			</input>
			<output>
				<port id="4" precision="FP32" names="/Slice_9_output_0">
					<dim>-1</dim>
					<dim>448</dim>
				</port>
			</output>
		</layer>
		<layer id="340" name="Constant_16647" type="Const" version="opset1">
			<data element_type="i64" shape="2" offset="144" size="16" />
			<rt_info>
				<attribute name="precise" version="0" />
			</rt_info>
			<output>
				<port id="0" precision="I64">
					<dim>2</dim>
				</port>
			</output>
		</layer>
		<layer id="341" name="Constant_16648" type="Const" version="opset1">
			<data element_type="i64" shape="2" offset="144" size="16" />
			<rt_info>
				<attribute name="precise" version="0" />
			</rt_info>
			<output>
				<port id="0" precision="I64">
					<dim>2</dim>
				</port>
			</output>
		</layer>
		<layer id="342" name="Constant_16644" type="Const" version="opset1">
			<data element_type="i64" shape="1" offset="8" size="8" />
			<rt_info>
				<attribute name="precise" version="0" />
			</rt_info>
			<output>
				<port id="0" precision="I64">
					<dim>1</dim>
				</port>
			</output>
		</layer>
		<layer id="343" name="Constant_16643" type="Const" version="opset1">
			<data element_type="i32" shape="1" offset="160" size="4" />
			<rt_info>
				<attribute name="precise" version="0" />
			</rt_info>
			<output>
				<port id="0" precision="I32">
					<dim>1</dim>
				</port>
			</output>
		</layer>
		<layer id="344" name="ScatterUpdate_16649" type="ScatterUpdate" version="opset3">
			<input>
				<port id="0" precision="I64">
					<dim>2</dim>
				</port>
				<port id="1" precision="I64">
					<dim>1</dim>
				</port>
				<port id="2" precision="I64">
					<dim>1</dim>
				</port>
				<port id="3" precision="I32">
					<dim>1</dim>
				</port>
			</input>
			<output>
				<port id="4" precision="I64">
					<dim>2</dim>
				</port>
			</output>
		</layer>
		<layer id="345" name="Constant_16652" type="Const" version="opset1">
			<data element_type="i64" shape="2" offset="164" size="16" />
			<rt_info>
				<attribute name="precise" version="0" />
			</rt_info>
			<output>
				<port id="0" precision="I64">
					<dim>2</dim>
				</port>
			</output>
		</layer>
		<layer id="346" name="/Slice_10" type="StridedSlice" version="opset1">
			<data begin_mask="1, 0" end_mask="1, 0" new_axis_mask="" shrink_axis_mask="" ellipsis_mask="" />
			<input>
				<port id="0" precision="FP32">
					<dim>-1</dim>
					<dim>448</dim>
				</port>
				<port id="1" precision="I64">
					<dim>2</dim>
				</port>
				<port id="2" precision="I64">
					<dim>2</dim>
				</port>
				<port id="3" precision="I64">
					<dim>2</dim>
				</port>
			</input>
			<output>
				<port id="4" precision="FP32" names="/Slice_10_output_0">
					<dim>-1</dim>
					<dim>-1</dim>
				</port>
			</output>
		</layer>
		<layer id="347" name="/Add_8" type="Add" version="opset1">
			<data auto_broadcast="numpy" />
			<input>
				<port id="0" precision="FP32">
					<dim>-1</dim>
					<dim>8</dim>
					<dim>-1</dim>
					<dim>-1</dim>
				</port>
				<port id="1" precision="FP32">
					<dim>-1</dim>
					<dim>-1</dim>
				</port>
			</input>
			<output>
				<port id="2" precision="FP32" names="/Add_8_output_0,/Cast_10_output_0">
					<dim>-1</dim>
					<dim>8</dim>
					<dim>-1</dim>
					<dim>-1</dim>
				</port>
			</output>
		</layer>
		<layer id="348" name="/Softmax" type="SoftMax" version="opset8">
			<data axis="-1" />
			<input>
				<port id="0" precision="FP32">
					<dim>-1</dim>
					<dim>8</dim>
					<dim>-1</dim>
					<dim>-1</dim>
				</port>
			</input>
			<output>
				<port id="1" precision="FP32" names="/Cast_11_output_0,/Softmax_output_0">
					<dim>-1</dim>
					<dim>8</dim>
					<dim>-1</dim>
					<dim>-1</dim>
				</port>
			</output>
		</layer>
		<layer id="349" name="/Concat_6" type="Const" version="opset1">
			<data element_type="i64" shape="4" offset="54623484" size="32" />
			<rt_info>
				<attribute name="precise" version="0" />
			</rt_info>
			<output>
				<port id="0" precision="I64">
					<dim>4</dim>
				</port>
			</output>
		</layer>
		<layer id="350" name="/Reshape_8" type="Reshape" version="opset1">
			<data special_zero="true" />
			<input>
				<port id="0" precision="FP32">
					<dim>-1</dim>
					<dim>-1</dim>
					<dim>512</dim>
				</port>
				<port id="1" precision="I64">
					<dim>4</dim>
				</port>
			</input>
			<output>
				<port id="2" precision="FP32" names="/Reshape_8_output_0">
					<dim>-1</dim>
					<dim>-1</dim>
					<dim>8</dim>
					<dim>64</dim>
				</port>
			</output>
		</layer>
		<layer id="351" name="Constant_617" type="Const" version="opset1">
			<data element_type="i64" shape="4" offset="54623516" size="32" />
			<output>
				<port id="0" precision="I64">
					<dim>4</dim>
				</port>
			</output>
		</layer>
		<layer id="352" name="/Transpose_2" type="Transpose" version="opset1">
			<input>
				<port id="0" precision="FP32">
					<dim>-1</dim>
					<dim>-1</dim>
					<dim>8</dim>
					<dim>64</dim>
				</port>
				<port id="1" precision="I64">
					<dim>4</dim>
				</port>
			</input>
			<output>
				<port id="2" precision="FP32" names="/Transpose_2_output_0">
					<dim>-1</dim>
					<dim>8</dim>
					<dim>-1</dim>
					<dim>64</dim>
				</port>
			</output>
		</layer>
		<layer id="353" name="/MatMul_1" type="MatMul" version="opset1">
			<data transpose_a="false" transpose_b="false" />
			<input>
				<port id="0" precision="FP32">
					<dim>-1</dim>
					<dim>8</dim>
					<dim>-1</dim>
					<dim>-1</dim>
				</port>
				<port id="1" precision="FP32">
					<dim>-1</dim>
					<dim>8</dim>
					<dim>-1</dim>
					<dim>64</dim>
				</port>
			</input>
			<output>
				<port id="2" precision="FP32" names="/MatMul_1_output_0">
					<dim>-1</dim>
					<dim>8</dim>
					<dim>-1</dim>
					<dim>64</dim>
				</port>
			</output>
		</layer>
		<layer id="354" name="Constant_640" type="Const" version="opset1">
			<data element_type="i64" shape="4" offset="54623516" size="32" />
			<output>
				<port id="0" precision="I64">
					<dim>4</dim>
				</port>
			</output>
		</layer>
		<layer id="355" name="/Transpose_3" type="Transpose" version="opset1">
			<input>
				<port id="0" precision="FP32">
					<dim>-1</dim>
					<dim>8</dim>
					<dim>-1</dim>
					<dim>64</dim>
				</port>
				<port id="1" precision="I64">
					<dim>4</dim>
				</port>
			</input>
			<output>
				<port id="2" precision="FP32" names="/Transpose_3_output_0">
					<dim>-1</dim>
					<dim>-1</dim>
					<dim>8</dim>
					<dim>64</dim>
				</port>
			</output>
		</layer>
		<layer id="356" name="/Shape_30" type="ShapeOf" version="opset3">
			<data output_type="i64" />
			<input>
				<port id="0" precision="FP32">
					<dim>-1</dim>
					<dim>-1</dim>
					<dim>8</dim>
					<dim>64</dim>
				</port>
			</input>
			<output>
				<port id="1" precision="I64" names="/Shape_30_output_0">
					<dim>4</dim>
				</port>
			</output>
		</layer>
		<layer id="357" name="/Constant_101" type="Const" version="opset1">
			<data element_type="i64" shape="1" offset="0" size="8" />
			<rt_info>
				<attribute name="precise" version="0" />
			</rt_info>
			<output>
				<port id="0" precision="I64" names="/Constant_101_output_0">
					<dim>1</dim>
				</port>
			</output>
		</layer>
		<layer id="358" name="/Constant_102" type="Const" version="opset1">
			<data element_type="i64" shape="1" offset="40" size="8" />
			<rt_info>
				<attribute name="precise" version="0" />
			</rt_info>
			<output>
				<port id="0" precision="I64" names="/Constant_102_output_0">
					<dim>1</dim>
				</port>
			</output>
		</layer>
		<layer id="359" name="Broadcast_648" type="Const" version="opset1">
			<data element_type="i64" shape="1" offset="8" size="8" />
			<rt_info>
				<attribute name="precise" version="0" />
			</rt_info>
			<output>
				<port id="0" precision="I64">
					<dim>1</dim>
				</port>
			</output>
		</layer>
		<layer id="360" name="/Slice_11" type="StridedSlice" version="opset1">
			<data begin_mask="0" end_mask="0" new_axis_mask="" shrink_axis_mask="" ellipsis_mask="" />
			<input>
				<port id="0" precision="I64">
					<dim>4</dim>
				</port>
				<port id="1" precision="I64">
					<dim>1</dim>
				</port>
				<port id="2" precision="I64">
					<dim>1</dim>
				</port>
				<port id="3" precision="I64">
					<dim>1</dim>
				</port>
			</input>
			<output>
				<port id="4" precision="I64" names="/Slice_11_output_0">
					<dim>2</dim>
				</port>
			</output>
		</layer>
		<layer id="361" name="/Constant_103" type="Const" version="opset1">
			<data element_type="i64" shape="1" offset="136" size="8" />
			<rt_info>
				<attribute name="precise" version="0" />
			</rt_info>
			<output>
				<port id="0" precision="I64" names="/Constant_103_output_0">
					<dim>1</dim>
				</port>
			</output>
		</layer>
		<layer id="362" name="/Concat_7" type="Concat" version="opset1">
			<data axis="0" />
			<input>
				<port id="0" precision="I64">
					<dim>2</dim>
				</port>
				<port id="1" precision="I64">
					<dim>1</dim>
				</port>
			</input>
			<output>
				<port id="2" precision="I64" names="/Concat_7_output_0">
					<dim>3</dim>
				</port>
			</output>
		</layer>
		<layer id="363" name="/Reshape_9" type="Reshape" version="opset1">
			<data special_zero="true" />
			<input>
				<port id="0" precision="FP32">
					<dim>-1</dim>
					<dim>-1</dim>
					<dim>8</dim>
					<dim>64</dim>
				</port>
				<port id="1" precision="I64">
					<dim>3</dim>
				</port>
			</input>
			<output>
				<port id="2" precision="FP32" names="/Reshape_9_output_0">
					<dim>-1</dim>
					<dim>-1</dim>
					<dim>-1</dim>
				</port>
			</output>
		</layer>
		<layer id="364" name="Transpose_18275_compressed" type="Const" version="opset1">
			<data element_type="f16" shape="512, 512" offset="55549286" size="524288" />
			<output>
				<port id="0" precision="FP16">
					<dim>512</dim>
					<dim>512</dim>
				</port>
			</output>
		</layer>
		<layer id="365" name="Transpose_18275" type="Convert" version="opset1">
			<data destination_type="f32" />
			<rt_info>
				<attribute name="decompression" version="0" />
			</rt_info>
			<input>
				<port id="0" precision="FP16">
					<dim>512</dim>
					<dim>512</dim>
				</port>
			</input>
			<output>
				<port id="1" precision="FP32">
					<dim>512</dim>
					<dim>512</dim>
				</port>
			</output>
		</layer>
		<layer id="366" name="/out/MatMul" type="MatMul" version="opset1">
			<data transpose_a="false" transpose_b="true" />
			<input>
				<port id="0" precision="FP32">
					<dim>-1</dim>
					<dim>-1</dim>
					<dim>-1</dim>
				</port>
				<port id="1" precision="FP32">
					<dim>512</dim>
					<dim>512</dim>
				</port>
			</input>
			<output>
				<port id="2" precision="FP32" names="/out/MatMul_output_0">
					<dim>-1</dim>
					<dim>-1</dim>
					<dim>512</dim>
				</port>
			</output>
		</layer>
		<layer id="367" name="/out/Add" type="Add" version="opset1">
			<data auto_broadcast="numpy" />
			<input>
				<port id="0" precision="FP32">
					<dim>1</dim>
					<dim>1</dim>
					<dim>512</dim>
				</port>
				<port id="1" precision="FP32">
					<dim>-1</dim>
					<dim>-1</dim>
					<dim>512</dim>
				</port>
			</input>
			<output>
				<port id="2" precision="FP32" names="/out/Add_output_0">
					<dim>-1</dim>
					<dim>-1</dim>
					<dim>512</dim>
				</port>
			</output>
		</layer>
		<layer id="368" name="/Add_9" type="Add" version="opset1">
			<data auto_broadcast="numpy" />
			<input>
				<port id="0" precision="FP32">
					<dim>-1</dim>
					<dim>-1</dim>
					<dim>512</dim>
				</port>
				<port id="1" precision="FP32">
					<dim>-1</dim>
					<dim>-1</dim>
					<dim>512</dim>
				</port>
			</input>
			<output>
				<port id="2" precision="FP32" names="/Add_9_output_0,/cross_attn_ln/Cast_output_0">
					<dim>-1</dim>
					<dim>-1</dim>
					<dim>512</dim>
				</port>
			</output>
		</layer>
		<layer id="369" name="Constant_21412_compressed" type="Const" version="opset1">
			<data element_type="f16" shape="1, 1, 512" offset="56073574" size="1024" />
			<output>
				<port id="0" precision="FP16">
					<dim>1</dim>
					<dim>1</dim>
					<dim>512</dim>
				</port>
			</output>
		</layer>
		<layer id="370" name="Constant_21412" type="Convert" version="opset1">
			<data destination_type="f32" />
			<rt_info>
				<attribute name="decompression" version="0" />
			</rt_info>
			<input>
				<port id="0" precision="FP16">
					<dim>1</dim>
					<dim>1</dim>
					<dim>512</dim>
				</port>
			</input>
			<output>
				<port id="1" precision="FP32">
					<dim>1</dim>
					<dim>1</dim>
					<dim>512</dim>
				</port>
			</output>
		</layer>
		<layer id="371" name="Constant_21411_compressed" type="Const" version="opset1">
			<data element_type="f16" shape="1, 1, 512" offset="56074598" size="1024" />
			<output>
				<port id="0" precision="FP16">
					<dim>1</dim>
					<dim>1</dim>
					<dim>512</dim>
				</port>
			</output>
		</layer>
		<layer id="372" name="Constant_21411" type="Convert" version="opset1">
			<data destination_type="f32" />
			<rt_info>
				<attribute name="decompression" version="0" />
			</rt_info>
			<input>
				<port id="0" precision="FP16">
					<dim>1</dim>
					<dim>1</dim>
					<dim>512</dim>
				</port>
			</input>
			<output>
				<port id="1" precision="FP32">
					<dim>1</dim>
					<dim>1</dim>
					<dim>512</dim>
				</port>
			</output>
		</layer>
		<layer id="373" name="Constant_664" type="Const" version="opset1">
			<data element_type="i64" shape="1" offset="136" size="8" />
			<output>
				<port id="0" precision="I64">
					<dim>1</dim>
				</port>
			</output>
		</layer>
		<layer id="374" name="/cross_attn_ln/Div" type="MVN" version="opset6">
			<data eps="9.9999997473787516e-06" normalize_variance="true" eps_mode="INSIDE_SQRT" />
			<input>
				<port id="0" precision="FP32">
					<dim>-1</dim>
					<dim>-1</dim>
					<dim>512</dim>
				</port>
				<port id="1" precision="I64">
					<dim>1</dim>
				</port>
			</input>
			<output>
				<port id="2" precision="FP32" names="/cross_attn_ln/Div_output_0">
					<dim>-1</dim>
					<dim>-1</dim>
					<dim>512</dim>
				</port>
			</output>
		</layer>
		<layer id="375" name="Constant_21409_compressed" type="Const" version="opset1">
			<data element_type="f16" shape="1, 1, 512" offset="56075622" size="1024" />
			<output>
				<port id="0" precision="FP16">
					<dim>1</dim>
					<dim>1</dim>
					<dim>512</dim>
				</port>
			</output>
		</layer>
		<layer id="376" name="Constant_21409" type="Convert" version="opset1">
			<data destination_type="f32" />
			<rt_info>
				<attribute name="decompression" version="0" />
			</rt_info>
			<input>
				<port id="0" precision="FP16">
					<dim>1</dim>
					<dim>1</dim>
					<dim>512</dim>
				</port>
			</input>
			<output>
				<port id="1" precision="FP32">
					<dim>1</dim>
					<dim>1</dim>
					<dim>512</dim>
				</port>
			</output>
		</layer>
		<layer id="377" name="/cross_attn_ln/Mul" type="Multiply" version="opset1">
			<data auto_broadcast="numpy" />
			<input>
				<port id="0" precision="FP32">
					<dim>-1</dim>
					<dim>-1</dim>
					<dim>512</dim>
				</port>
				<port id="1" precision="FP32">
					<dim>1</dim>
					<dim>1</dim>
					<dim>512</dim>
				</port>
			</input>
			<output>
				<port id="2" precision="FP32" names="/cross_attn_ln/Mul_output_0">
					<dim>-1</dim>
					<dim>-1</dim>
					<dim>512</dim>
				</port>
			</output>
		</layer>
		<layer id="378" name="Constant_21410_compressed" type="Const" version="opset1">
			<data element_type="f16" shape="1, 1, 512" offset="56076646" size="1024" />
			<output>
				<port id="0" precision="FP16">
					<dim>1</dim>
					<dim>1</dim>
					<dim>512</dim>
				</port>
			</output>
		</layer>
		<layer id="379" name="Constant_21410" type="Convert" version="opset1">
			<data destination_type="f32" />
			<rt_info>
				<attribute name="decompression" version="0" />
			</rt_info>
			<input>
				<port id="0" precision="FP16">
					<dim>1</dim>
					<dim>1</dim>
					<dim>512</dim>
				</port>
			</input>
			<output>
				<port id="1" precision="FP32">
					<dim>1</dim>
					<dim>1</dim>
					<dim>512</dim>
				</port>
			</output>
		</layer>
		<layer id="380" name="/cross_attn_ln/Add_1" type="Add" version="opset1">
			<data auto_broadcast="numpy" />
			<input>
				<port id="0" precision="FP32">
					<dim>-1</dim>
					<dim>-1</dim>
					<dim>512</dim>
				</port>
				<port id="1" precision="FP32">
					<dim>1</dim>
					<dim>1</dim>
					<dim>512</dim>
				</port>
			</input>
			<output>
				<port id="2" precision="FP32" names="/cross_attn_ln/Add_1_output_0,/cross_attn_ln/Cast_1_output_0">
					<dim>-1</dim>
					<dim>-1</dim>
					<dim>512</dim>
				</port>
			</output>
		</layer>
		<layer id="381" name="Transpose_18293_compressed" type="Const" version="opset1">
			<data element_type="f16" shape="512, 512" offset="56077670" size="524288" />
			<output>
				<port id="0" precision="FP16">
					<dim>512</dim>
					<dim>512</dim>
				</port>
			</output>
		</layer>
		<layer id="382" name="Transpose_18293" type="Convert" version="opset1">
			<data destination_type="f32" />
			<rt_info>
				<attribute name="decompression" version="0" />
			</rt_info>
			<input>
				<port id="0" precision="FP16">
					<dim>512</dim>
					<dim>512</dim>
				</port>
			</input>
			<output>
				<port id="1" precision="FP32">
					<dim>512</dim>
					<dim>512</dim>
				</port>
			</output>
		</layer>
		<layer id="383" name="/query_1/MatMul" type="MatMul" version="opset1">
			<data transpose_a="false" transpose_b="true" />
			<input>
				<port id="0" precision="FP32">
					<dim>-1</dim>
					<dim>-1</dim>
					<dim>512</dim>
				</port>
				<port id="1" precision="FP32">
					<dim>512</dim>
					<dim>512</dim>
				</port>
			</input>
			<output>
				<port id="2" precision="FP32" names="/query_1/MatMul_output_0">
					<dim>-1</dim>
					<dim>-1</dim>
					<dim>512</dim>
				</port>
			</output>
		</layer>
		<layer id="384" name="/query_1/Add" type="Add" version="opset1">
			<data auto_broadcast="numpy" />
			<input>
				<port id="0" precision="FP32">
					<dim>1</dim>
					<dim>1</dim>
					<dim>512</dim>
				</port>
				<port id="1" precision="FP32">
					<dim>-1</dim>
					<dim>-1</dim>
					<dim>512</dim>
				</port>
			</input>
			<output>
				<port id="2" precision="FP32" names="/query_1/Add_output_0">
					<dim>-1</dim>
					<dim>-1</dim>
					<dim>512</dim>
				</port>
			</output>
		</layer>
		<layer id="385" name="/Concat_8" type="Const" version="opset1">
			<data element_type="i64" shape="4" offset="54623484" size="32" />
			<rt_info>
				<attribute name="precise" version="0" />
			</rt_info>
			<output>
				<port id="0" precision="I64">
					<dim>4</dim>
				</port>
			</output>
		</layer>
		<layer id="386" name="/Reshape_10" type="Reshape" version="opset1">
			<data special_zero="true" />
			<input>
				<port id="0" precision="FP32">
					<dim>-1</dim>
					<dim>-1</dim>
					<dim>512</dim>
				</port>
				<port id="1" precision="I64">
					<dim>4</dim>
				</port>
			</input>
			<output>
				<port id="2" precision="FP32" names="/Reshape_10_output_0">
					<dim>-1</dim>
					<dim>-1</dim>
					<dim>8</dim>
					<dim>64</dim>
				</port>
			</output>
		</layer>
		<layer id="387" name="Constant_709" type="Const" version="opset1">
			<data element_type="i64" shape="4" offset="54623516" size="32" />
			<output>
				<port id="0" precision="I64">
					<dim>4</dim>
				</port>
			</output>
		</layer>
		<layer id="388" name="/Transpose_4" type="Transpose" version="opset1">
			<input>
				<port id="0" precision="FP32">
					<dim>-1</dim>
					<dim>-1</dim>
					<dim>8</dim>
					<dim>64</dim>
				</port>
				<port id="1" precision="I64">
					<dim>4</dim>
				</port>
			</input>
			<output>
				<port id="2" precision="FP32" names="/Transpose_4_output_0">
					<dim>-1</dim>
					<dim>8</dim>
					<dim>-1</dim>
					<dim>64</dim>
				</port>
			</output>
		</layer>
		<layer id="389" name="/Shape_31" type="ShapeOf" version="opset3">
			<data output_type="i64" />
			<input>
				<port id="0" precision="FP32">
					<dim>-1</dim>
					<dim>-1</dim>
					<dim>512</dim>
				</port>
			</input>
			<output>
				<port id="1" precision="I64" names="/Shape_31_output_0,/Shape_32_output_0,/Shape_33_output_0">
					<dim>3</dim>
				</port>
			</output>
		</layer>
		<layer id="390" name="/Constant_104" type="Const" version="opset1">
			<data element_type="i64" shape="" offset="40" size="8" />
			<output>
				<port id="0" precision="I64" names="/Constant_104_output_0" />
			</output>
		</layer>
		<layer id="391" name="Constant_682" type="Const" version="opset1">
			<data element_type="i64" shape="" offset="0" size="8" />
			<output>
				<port id="0" precision="I64" />
			</output>
		</layer>
		<layer id="392" name="/Gather_26" type="Gather" version="opset8">
			<data batch_dims="0" />
			<input>
				<port id="0" precision="I64">
					<dim>3</dim>
				</port>
				<port id="1" precision="I64" />
				<port id="2" precision="I64" />
			</input>
			<output>
				<port id="3" precision="I64" names="/Gather_26_output_0" />
			</output>
		</layer>
		<layer id="393" name="/Constant_105" type="Const" version="opset1">
			<data element_type="i64" shape="" offset="54623548" size="8" />
			<output>
				<port id="0" precision="I64" names="/Constant_105_output_0" />
			</output>
		</layer>
		<layer id="394" name="/Div_1" type="Divide" version="opset1">
			<data auto_broadcast="numpy" m_pythondiv="true" />
			<input>
				<port id="0" precision="I64" />
				<port id="1" precision="I64" />
			</input>
			<output>
				<port id="2" precision="I64" names="/Cast_12_output_0,/Cast_13_output_0,/Div_1_output_0" />
			</output>
		</layer>
		<layer id="395" name="/Cast_14" type="Convert" version="opset1">
			<data destination_type="f32" />
			<input>
				<port id="0" precision="I64" />
			</input>
			<output>
				<port id="1" precision="FP32" names="/Cast_14_output_0" />
			</output>
		</layer>
		<layer id="396" name="/Constant_106_compressed" type="Const" version="opset1">
			<data element_type="f16" shape="" offset="54623556" size="2" />
			<output>
				<port id="0" precision="FP16" />
			</output>
		</layer>
		<layer id="397" name="/Constant_106" type="Convert" version="opset1">
			<data destination_type="f32" />
			<rt_info>
				<attribute name="decompression" version="0" />
			</rt_info>
			<input>
				<port id="0" precision="FP16" />
			</input>
			<output>
				<port id="1" precision="FP32" names="/Constant_106_output_0" />
			</output>
		</layer>
		<layer id="398" name="/Pow_1" type="Power" version="opset1">
			<data auto_broadcast="numpy" />
			<input>
				<port id="0" precision="FP32" />
				<port id="1" precision="FP32" />
			</input>
			<output>
				<port id="2" precision="FP32" names="/Pow_1_output_0" />
			</output>
		</layer>
		<layer id="399" name="/Mul_8" type="Multiply" version="opset1">
			<data auto_broadcast="numpy" />
			<input>
				<port id="0" precision="FP32">
					<dim>-1</dim>
					<dim>8</dim>
					<dim>-1</dim>
					<dim>64</dim>
				</port>
				<port id="1" precision="FP32" />
			</input>
			<output>
				<port id="2" precision="FP32" names="/Mul_8_output_0">
					<dim>-1</dim>
					<dim>8</dim>
					<dim>-1</dim>
					<dim>64</dim>
				</port>
			</output>
		</layer>
		<layer id="400" name="Constant_190" type="Const" version="opset1">
			<data element_type="i64" shape="" offset="0" size="8" />
			<output>
				<port id="0" precision="I64" />
			</output>
		</layer>
		<layer id="401" name="/Gather_9" type="Gather" version="opset8">
			<data batch_dims="0" />
			<input>
				<port id="0" precision="FP32">
					<dim>6</dim>
					<dim>-1</dim>
					<dim>-1</dim>
					<dim>512</dim>
				</port>
				<port id="1" precision="I64" />
				<port id="2" precision="I64" />
			</input>
			<output>
				<port id="3" precision="FP32" names="/Gather_9_output_0">
					<dim>-1</dim>
					<dim>-1</dim>
					<dim>512</dim>
				</port>
			</output>
		</layer>
		<layer id="402" name="/Concat_9" type="Const" version="opset1">
…
		<edge from-layer="1853" from-port="1" to-layer="1857" to-port="2" />
		<edge from-layer="1853" from-port="1" to-layer="1855" to-port="0" />
		<edge from-layer="1853" from-port="1" to-layer="1872" to-port="1" />
		<edge from-layer="1854" from-port="0" to-layer="1855" to-port="1" />
		<edge from-layer="1855" from-port="2" to-layer="1857" to-port="0" />
		<edge from-layer="1856" from-port="0" to-layer="1857" to-port="1" />
		<edge from-layer="1857" from-port="3" to-layer="1861" to-port="1" />
		<edge from-layer="1857" from-port="3" to-layer="1864" to-port="1" />
		<edge from-layer="1857" from-port="3" to-layer="1867" to-port="1" />
		<edge from-layer="1857" from-port="3" to-layer="1858" to-port="1" />
		<edge from-layer="1858" from-port="2" to-layer="1860" to-port="0" />
		<edge from-layer="1859" from-port="0" to-layer="1860" to-port="1" />
		<edge from-layer="1860" from-port="2" to-layer="1870" to-port="0" />
		<edge from-layer="1861" from-port="2" to-layer="1863" to-port="0" />
		<edge from-layer="1862" from-port="0" to-layer="1863" to-port="1" />
		<edge from-layer="1863" from-port="2" to-layer="1870" to-port="1" />
		<edge from-layer="1864" from-port="2" to-layer="1866" to-port="0" />
		<edge from-layer="1865" from-port="0" to-layer="1866" to-port="1" />
		<edge from-layer="1866" from-port="2" to-layer="1870" to-port="2" />
		<edge from-layer="1867" from-port="2" to-layer="1869" to-port="0" />
		<edge from-layer="1868" from-port="0" to-layer="1869" to-port="1" />
		<edge from-layer="1869" from-port="2" to-layer="1870" to-port="3" />
		<edge from-layer="1870" from-port="4" to-layer="1873" to-port="1" />
		<edge from-layer="1871" from-port="2" to-layer="1872" to-port="0" />
		<edge from-layer="1872" from-port="2" to-layer="1873" to-port="2" />
		<edge from-layer="1873" from-port="3" to-layer="1875" to-port="0" />
		<edge from-layer="1873" from-port="3" to-layer="2135" to-port="0" />
		<edge from-layer="1873" from-port="3" to-layer="2183" to-port="0" />
		<edge from-layer="1874" from-port="0" to-layer="1875" to-port="2" />
		<edge from-layer="1875" from-port="3" to-layer="1878" to-port="0" />
		<edge from-layer="1876" from-port="0" to-layer="1878" to-port="1" />
		<edge from-layer="1877" from-port="0" to-layer="1878" to-port="3" />
		<edge from-layer="1878" from-port="4" to-layer="1943" to-port="0" />
		<edge from-layer="1878" from-port="4" to-layer="1939" to-port="0" />
		<edge from-layer="1878" from-port="4" to-layer="1880" to-port="0" />
		<edge from-layer="1879" from-port="0" to-layer="1885" to-port="0" />
		<edge from-layer="1880" from-port="1" to-layer="1914" to-port="0" />
		<edge from-layer="1880" from-port="1" to-layer="1883" to-port="0" />
		<edge from-layer="1880" from-port="1" to-layer="2181" to-port="1" />
		<edge from-layer="1880" from-port="1" to-layer="1891" to-port="0" />
		<edge from-layer="1881" from-port="0" to-layer="1883" to-port="1" />
		<edge from-layer="1882" from-port="0" to-layer="1883" to-port="2" />
		<edge from-layer="1883" from-port="3" to-layer="1885" to-port="1" />
		<edge from-layer="1884" from-port="0" to-layer="1885" to-port="2" />
		<edge from-layer="1885" from-port="3" to-layer="1887" to-port="0" />
		<edge from-layer="1886" from-port="0" to-layer="1887" to-port="1" />
		<edge from-layer="1887" from-port="2" to-layer="1910" to-port="0" />
		<edge from-layer="1887" from-port="2" to-layer="1923" to-port="0" />
		<edge from-layer="1888" from-port="0" to-layer="1893" to-port="0" />
		<edge from-layer="1889" from-port="0" to-layer="1891" to-port="1" />
		<edge from-layer="1890" from-port="0" to-layer="1891" to-port="2" />
		<edge from-layer="1891" from-port="3" to-layer="1893" to-port="1" />
		<edge from-layer="1892" from-port="0" to-layer="1893" to-port="2" />
		<edge from-layer="1893" from-port="3" to-layer="1907" to-port="0" />
		<edge from-layer="1894" from-port="0" to-layer="1895" to-port="0" />
		<edge from-layer="1895" from-port="1" to-layer="1896" to-port="1" />
		<edge from-layer="1896" from-port="2" to-layer="1897" to-port="0" />
		<edge from-layer="1896" from-port="2" to-layer="1941" to-port="0" />
		<edge from-layer="1897" from-port="1" to-layer="1900" to-port="0" />
		<edge from-layer="1898" from-port="0" to-layer="1900" to-port="1" />
		<edge from-layer="1899" from-port="0" to-layer="1900" to-port="2" />
		<edge from-layer="1900" from-port="3" to-layer="1902" to-port="0" />
		<edge from-layer="1901" from-port="0" to-layer="1902" to-port="1" />
		<edge from-layer="1902" from-port="2" to-layer="1904" to-port="0" />
		<edge from-layer="1903" from-port="0" to-layer="1904" to-port="1" />
		<edge from-layer="1904" from-port="2" to-layer="1907" to-port="1" />
		<edge from-layer="1904" from-port="2" to-layer="1936" to-port="2" />
		<edge from-layer="1905" from-port="0" to-layer="1907" to-port="2" />
		<edge from-layer="1906" from-port="0" to-layer="1907" to-port="3" />
		<edge from-layer="1907" from-port="4" to-layer="1909" to-port="0" />
		<edge from-layer="1908" from-port="0" to-layer="1909" to-port="1" />
		<edge from-layer="1909" from-port="2" to-layer="1910" to-port="1" />
		<edge from-layer="1909" from-port="2" to-layer="1926" to-port="0" />
		<edge from-layer="1910" from-port="2" to-layer="1917" to-port="0" />
		<edge from-layer="1911" from-port="0" to-layer="1916" to-port="0" />
		<edge from-layer="1912" from-port="0" to-layer="1914" to-port="1" />
		<edge from-layer="1913" from-port="0" to-layer="1914" to-port="2" />
		<edge from-layer="1914" from-port="3" to-layer="1916" to-port="1" />
		<edge from-layer="1915" from-port="0" to-layer="1916" to-port="2" />
		<edge from-layer="1916" from-port="3" to-layer="1929" to-port="0" />
		<edge from-layer="1916" from-port="3" to-layer="1917" to-port="1" />
		<edge from-layer="1917" from-port="2" to-layer="1918" to-port="0" />
		<edge from-layer="1918" from-port="1" to-layer="1942" to-port="1" />
		<edge from-layer="1918" from-port="1" to-layer="1920" to-port="0" />
		<edge from-layer="1918" from-port="1" to-layer="1922" to-port="2" />
		<edge from-layer="1919" from-port="0" to-layer="1920" to-port="1" />
		<edge from-layer="1920" from-port="2" to-layer="1922" to-port="0" />
		<edge from-layer="1921" from-port="0" to-layer="1922" to-port="1" />
		<edge from-layer="1922" from-port="3" to-layer="1923" to-port="1" />
		<edge from-layer="1922" from-port="3" to-layer="1926" to-port="1" />
		<edge from-layer="1922" from-port="3" to-layer="1929" to-port="1" />
		<edge from-layer="1923" from-port="2" to-layer="1925" to-port="0" />
		<edge from-layer="1924" from-port="0" to-layer="1925" to-port="1" />
		<edge from-layer="1925" from-port="2" to-layer="1932" to-port="0" />
		<edge from-layer="1926" from-port="2" to-layer="1928" to-port="0" />
		<edge from-layer="1927" from-port="0" to-layer="1928" to-port="1" />
		<edge from-layer="1928" from-port="2" to-layer="1932" to-port="1" />
		<edge from-layer="1929" from-port="2" to-layer="1931" to-port="0" />
		<edge from-layer="1930" from-port="0" to-layer="1931" to-port="1" />
		<edge from-layer="1931" from-port="2" to-layer="1932" to-port="2" />
		<edge from-layer="1932" from-port="3" to-layer="1943" to-port="1" />
		<edge from-layer="1933" from-port="0" to-layer="1936" to-port="0" />
		<edge from-layer="1934" from-port="0" to-layer="1936" to-port="1" />
		<edge from-layer="1935" from-port="0" to-layer="1936" to-port="3" />
		<edge from-layer="1936" from-port="4" to-layer="1939" to-port="1" />
		<edge from-layer="1937" from-port="0" to-layer="1939" to-port="2" />
		<edge from-layer="1938" from-port="0" to-layer="1939" to-port="3" />
		<edge from-layer="1939" from-port="4" to-layer="1940" to-port="0" />
		<edge from-layer="1940" from-port="1" to-layer="1941" to-port="1" />
		<edge from-layer="1941" from-port="2" to-layer="1942" to-port="0" />
		<edge from-layer="1942" from-port="2" to-layer="1943" to-port="2" />
		<edge from-layer="1943" from-port="3" to-layer="1945" to-port="0" />
		<edge from-layer="1943" from-port="3" to-layer="2181" to-port="0" />
		<edge from-layer="1944" from-port="0" to-layer="1945" to-port="1" />
		<edge from-layer="1945" from-port="2" to-layer="1947" to-port="0" />
		<edge from-layer="1946" from-port="0" to-layer="1947" to-port="1" />
		<edge from-layer="1947" from-port="2" to-layer="1948" to-port="0" />
		<edge from-layer="1948" from-port="2" to-layer="1949" to-port="1" />
		<edge from-layer="1949" from-port="2" to-layer="1963" to-port="0" />
		<edge from-layer="1950" from-port="0" to-layer="1955" to-port="1" />
		<edge from-layer="1951" from-port="0" to-layer="1953" to-port="1" />
		<edge from-layer="1952" from-port="0" to-layer="1953" to-port="2" />
		<edge from-layer="1953" from-port="3" to-layer="1960" to-port="2" />
		<edge from-layer="1953" from-port="3" to-layer="1955" to-port="2" />
		<edge from-layer="1954" from-port="0" to-layer="1955" to-port="3" />
		<edge from-layer="1955" from-port="4" to-layer="1962" to-port="0" />
		<edge from-layer="1956" from-port="0" to-layer="1962" to-port="1" />
		<edge from-layer="1957" from-port="0" to-layer="1960" to-port="0" />
		<edge from-layer="1958" from-port="0" to-layer="1960" to-port="1" />
		<edge from-layer="1959" from-port="0" to-layer="1960" to-port="3" />
		<edge from-layer="1960" from-port="4" to-layer="1962" to-port="2" />
		<edge from-layer="1961" from-port="0" to-layer="1962" to-port="3" />
		<edge from-layer="1962" from-port="4" to-layer="1963" to-port="1" />
		<edge from-layer="1963" from-port="2" to-layer="1964" to-port="0" />
		<edge from-layer="1964" from-port="1" to-layer="1969" to-port="0" />
		<edge from-layer="1965" from-port="0" to-layer="1966" to-port="1" />
		<edge from-layer="1966" from-port="2" to-layer="1968" to-port="0" />
		<edge from-layer="1967" from-port="0" to-layer="1968" to-port="1" />
		<edge from-layer="1968" from-port="2" to-layer="1969" to-port="1" />
		<edge from-layer="1969" from-port="2" to-layer="1971" to-port="0" />
		<edge from-layer="1970" from-port="0" to-layer="1971" to-port="1" />
		<edge from-layer="1971" from-port="2" to-layer="1979" to-port="0" />
		<edge from-layer="1971" from-port="2" to-layer="1972" to-port="0" />
		<edge from-layer="1972" from-port="1" to-layer="1976" to-port="0" />
		<edge from-layer="1973" from-port="0" to-layer="1976" to-port="1" />
		<edge from-layer="1974" from-port="0" to-layer="1976" to-port="2" />
		<edge from-layer="1975" from-port="0" to-layer="1976" to-port="3" />
		<edge from-layer="1976" from-port="4" to-layer="1978" to-port="0" />
		<edge from-layer="1977" from-port="0" to-layer="1978" to-port="1" />
		<edge from-layer="1978" from-port="2" to-layer="1979" to-port="1" />
		<edge from-layer="1979" from-port="2" to-layer="1982" to-port="0" />
		<edge from-layer="1980" from-port="0" to-layer="1981" to-port="0" />
		<edge from-layer="1981" from-port="1" to-layer="1982" to-port="1" />
		<edge from-layer="1982" from-port="2" to-layer="1983" to-port="1" />
		<edge from-layer="1983" from-port="2" to-layer="1984" to-port="1" />
		<edge from-layer="1984" from-port="2" to-layer="2046" to-port="0" />
		<edge from-layer="1984" from-port="2" to-layer="1990" to-port="0" />
		<edge from-layer="1985" from-port="0" to-layer="1986" to-port="0" />
		<edge from-layer="1986" from-port="1" to-layer="2045" to-port="0" />
		<edge from-layer="1987" from-port="0" to-layer="1988" to-port="0" />
		<edge from-layer="1988" from-port="1" to-layer="2000" to-port="0" />
		<edge from-layer="1989" from-port="0" to-layer="1990" to-port="1" />
		<edge from-layer="1990" from-port="2" to-layer="1993" to-port="0" />
		<edge from-layer="1991" from-port="0" to-layer="1992" to-port="0" />
		<edge from-layer="1992" from-port="1" to-layer="1993" to-port="1" />
		<edge from-layer="1993" from-port="2" to-layer="1996" to-port="0" />
		<edge from-layer="1994" from-port="0" to-layer="1995" to-port="0" />
		<edge from-layer="1995" from-port="1" to-layer="1996" to-port="1" />
		<edge from-layer="1996" from-port="2" to-layer="1999" to-port="0" />
		<edge from-layer="1997" from-port="0" to-layer="1998" to-port="0" />
		<edge from-layer="1998" from-port="1" to-layer="1999" to-port="1" />
		<edge from-layer="1999" from-port="2" to-layer="2000" to-port="1" />
		<edge from-layer="2000" from-port="2" to-layer="2005" to-port="0" />
		<edge from-layer="2000" from-port="2" to-layer="2002" to-port="0" />
		<edge from-layer="2001" from-port="0" to-layer="2002" to-port="1" />
		<edge from-layer="2002" from-port="2" to-layer="2004" to-port="0" />
		<edge from-layer="2003" from-port="0" to-layer="2004" to-port="1" />
		<edge from-layer="2004" from-port="2" to-layer="2015" to-port="0" />
		<edge from-layer="2005" from-port="1" to-layer="2008" to-port="0" />
		<edge from-layer="2006" from-port="0" to-layer="2008" to-port="1" />
		<edge from-layer="2007" from-port="0" to-layer="2008" to-port="2" />
		<edge from-layer="2008" from-port="3" to-layer="2010" to-port="0" />
		<edge from-layer="2009" from-port="0" to-layer="2010" to-port="1" />
		<edge from-layer="2010" from-port="2" to-layer="2011" to-port="0" />
		<edge from-layer="2011" from-port="1" to-layer="2014" to-port="0" />
		<edge from-layer="2012" from-port="0" to-layer="2013" to-port="0" />
		<edge from-layer="2013" from-port="1" to-layer="2014" to-port="1" />
		<edge from-layer="2014" from-port="2" to-layer="2022" to-port="1" />
		<edge from-layer="2014" from-port="2" to-layer="2015" to-port="1" />
		<edge from-layer="2015" from-port="2" to-layer="2023" to-port="0" />
		<edge from-layer="2016" from-port="0" to-layer="2017" to-port="2" />
		<edge from-layer="2017" from-port="3" to-layer="2019" to-port="0" />
		<edge from-layer="2018" from-port="0" to-layer="2019" to-port="1" />
		<edge from-layer="2019" from-port="2" to-layer="2021" to-port="0" />
		<edge from-layer="2020" from-port="0" to-layer="2021" to-port="1" />
		<edge from-layer="2021" from-port="2" to-layer="2022" to-port="0" />
		<edge from-layer="2022" from-port="2" to-layer="2023" to-port="1" />
		<edge from-layer="2023" from-port="2" to-layer="2024" to-port="0" />
		<edge from-layer="2024" from-port="1" to-layer="2031" to-port="0" />
		<edge from-layer="2025" from-port="0" to-layer="2026" to-port="2" />
		<edge from-layer="2026" from-port="3" to-layer="2028" to-port="0" />
		<edge from-layer="2027" from-port="0" to-layer="2028" to-port="1" />
		<edge from-layer="2028" from-port="2" to-layer="2030" to-port="0" />
		<edge from-layer="2029" from-port="0" to-layer="2030" to-port="1" />
		<edge from-layer="2030" from-port="2" to-layer="2031" to-port="1" />
		<edge from-layer="2031" from-port="2" to-layer="2033" to-port="0" />
		<edge from-layer="2032" from-port="0" to-layer="2033" to-port="1" />
		<edge from-layer="2033" from-port="2" to-layer="2034" to-port="0" />
		<edge from-layer="2033" from-port="2" to-layer="2041" to-port="0" />
		<edge from-layer="2034" from-port="1" to-layer="2038" to-port="0" />
		<edge from-layer="2035" from-port="0" to-layer="2038" to-port="1" />
		<edge from-layer="2036" from-port="0" to-layer="2038" to-port="2" />
		<edge from-layer="2037" from-port="0" to-layer="2038" to-port="3" />
		<edge from-layer="2038" from-port="4" to-layer="2040" to-port="0" />
		<edge from-layer="2039" from-port="0" to-layer="2040" to-port="1" />
		<edge from-layer="2040" from-port="2" to-layer="2041" to-port="1" />
		<edge from-layer="2041" from-port="2" to-layer="2044" to-port="0" />
		<edge from-layer="2042" from-port="0" to-layer="2043" to-port="0" />
		<edge from-layer="2043" from-port="1" to-layer="2044" to-port="1" />
		<edge from-layer="2044" from-port="2" to-layer="2045" to-port="1" />
		<edge from-layer="2045" from-port="2" to-layer="2046" to-port="1" />
		<edge from-layer="2046" from-port="2" to-layer="2052" to-port="0" />
		<edge from-layer="2046" from-port="2" to-layer="2068" to-port="0" />
		<edge from-layer="2047" from-port="0" to-layer="2048" to-port="0" />
		<edge from-layer="2048" from-port="1" to-layer="2067" to-port="0" />
		<edge from-layer="2049" from-port="0" to-layer="2050" to-port="0" />
		<edge from-layer="2050" from-port="1" to-layer="2062" to-port="0" />
		<edge from-layer="2051" from-port="0" to-layer="2052" to-port="1" />
		<edge from-layer="2052" from-port="2" to-layer="2055" to-port="0" />
		<edge from-layer="2053" from-port="0" to-layer="2054" to-port="0" />
		<edge from-layer="2054" from-port="1" to-layer="2055" to-port="1" />
		<edge from-layer="2055" from-port="2" to-layer="2058" to-port="0" />
		<edge from-layer="2056" from-port="0" to-layer="2057" to-port="0" />
		<edge from-layer="2057" from-port="1" to-layer="2058" to-port="1" />
		<edge from-layer="2058" from-port="2" to-layer="2061" to-port="0" />
		<edge from-layer="2059" from-port="0" to-layer="2060" to-port="0" />
		<edge from-layer="2060" from-port="1" to-layer="2061" to-port="1" />
		<edge from-layer="2061" from-port="2" to-layer="2062" to-port="1" />
		<edge from-layer="2062" from-port="2" to-layer="2063" to-port="0" />
		<edge from-layer="2063" from-port="1" to-layer="2066" to-port="0" />
		<edge from-layer="2064" from-port="0" to-layer="2065" to-port="0" />
		<edge from-layer="2065" from-port="1" to-layer="2066" to-port="1" />
		<edge from-layer="2066" from-port="2" to-layer="2067" to-port="1" />
		<edge from-layer="2067" from-port="2" to-layer="2068" to-port="1" />
		<edge from-layer="2068" from-port="2" to-layer="2370" to-port="0" />
		<edge from-layer="2068" from-port="2" to-layer="2070" to-port="0" />
		<edge from-layer="2069" from-port="0" to-layer="2070" to-port="1" />
		<edge from-layer="2070" from-port="2" to-layer="2073" to-port="0" />
		<edge from-layer="2071" from-port="0" to-layer="2072" to-port="0" />
		<edge from-layer="2072" from-port="1" to-layer="2073" to-port="1" />
		<edge from-layer="2073" from-port="2" to-layer="2076" to-port="0" />
		<edge from-layer="2074" from-port="0" to-layer="2075" to-port="0" />
		<edge from-layer="2075" from-port="1" to-layer="2076" to-port="1" />
		<edge from-layer="2076" from-port="2" to-layer="2313" to-port="0" />
		<edge from-layer="2076" from-port="2" to-layer="2255" to-port="0" />
		<edge from-layer="2076" from-port="2" to-layer="2079" to-port="0" />
		<edge from-layer="2077" from-port="0" to-layer="2078" to-port="0" />
		<edge from-layer="2078" from-port="1" to-layer="2079" to-port="1" />
		<edge from-layer="2079" from-port="2" to-layer="2080" to-port="1" />
		<edge from-layer="2080" from-port="2" to-layer="2125" to-port="0" />
		<edge from-layer="2080" from-port="2" to-layer="2081" to-port="0" />
		<edge from-layer="2081" from-port="1" to-layer="2084" to-port="0" />
		<edge from-layer="2082" from-port="0" to-layer="2084" to-port="1" />
		<edge from-layer="2083" from-port="0" to-layer="2084" to-port="2" />
		<edge from-layer="2084" from-port="3" to-layer="2086" to-port="0" />
		<edge from-layer="2085" from-port="0" to-layer="2086" to-port="1" />
		<edge from-layer="2086" from-port="2" to-layer="2088" to-port="0" />
		<edge from-layer="2087" from-port="0" to-layer="2088" to-port="1" />
		<edge from-layer="2088" from-port="2" to-layer="2091" to-port="1" />
		<edge from-layer="2088" from-port="2" to-layer="2120" to-port="2" />
		<edge from-layer="2089" from-port="0" to-layer="2091" to-port="2" />
		<edge from-layer="2090" from-port="0" to-layer="2091" to-port="3" />
		<edge from-layer="2091" from-port="4" to-layer="2093" to-port="0" />
		<edge from-layer="2092" from-port="0" to-layer="2093" to-port="1" />
		<edge from-layer="2093" from-port="2" to-layer="2110" to-port="0" />
		<edge from-layer="2093" from-port="2" to-layer="2094" to-port="1" />
		<edge from-layer="2094" from-port="2" to-layer="2101" to-port="0" />
		<edge from-layer="2095" from-port="0" to-layer="2100" to-port="0" />
		<edge from-layer="2096" from-port="0" to-layer="2098" to-port="1" />
		<edge from-layer="2097" from-port="0" to-layer="2098" to-port="2" />
		<edge from-layer="2098" from-port="3" to-layer="2100" to-port="1" />
		<edge from-layer="2099" from-port="0" to-layer="2100" to-port="2" />
		<edge from-layer="2100" from-port="3" to-layer="2113" to-port="0" />
		<edge from-layer="2100" from-port="3" to-layer="2101" to-port="1" />
		<edge from-layer="2101" from-port="2" to-layer="2102" to-port="0" />
		<edge from-layer="2102" from-port="1" to-layer="2106" to-port="2" />
		<edge from-layer="2102" from-port="1" to-layer="2126" to-port="1" />
		<edge from-layer="2102" from-port="1" to-layer="2104" to-port="0" />
		<edge from-layer="2103" from-port="0" to-layer="2104" to-port="1" />
		<edge from-layer="2104" from-port="2" to-layer="2106" to-port="0" />
		<edge from-layer="2105" from-port="0" to-layer="2106" to-port="1" />
		<edge from-layer="2106" from-port="3" to-layer="2110" to-port="1" />
		<edge from-layer="2106" from-port="3" to-layer="2113" to-port="1" />
		<edge from-layer="2106" from-port="3" to-layer="2107" to-port="1" />
		<edge from-layer="2107" from-port="2" to-layer="2109" to-port="0" />
		<edge from-layer="2108" from-port="0" to-layer="2109" to-port="1" />
		<edge from-layer="2109" from-port="2" to-layer="2116" to-port="0" />
		<edge from-layer="2110" from-port="2" to-layer="2112" to-port="0" />
		<edge from-layer="2111" from-port="0" to-layer="2112" to-port="1" />
		<edge from-layer="2112" from-port="2" to-layer="2116" to-port="1" />
		<edge from-layer="2113" from-port="2" to-layer="2115" to-port="0" />
		<edge from-layer="2114" from-port="0" to-layer="2115" to-port="1" />
		<edge from-layer="2115" from-port="2" to-layer="2116" to-port="2" />
		<edge from-layer="2116" from-port="3" to-layer="2127" to-port="1" />
		<edge from-layer="2117" from-port="0" to-layer="2120" to-port="0" />
		<edge from-layer="2118" from-port="0" to-layer="2120" to-port="1" />
		<edge from-layer="2119" from-port="0" to-layer="2120" to-port="3" />
		<edge from-layer="2120" from-port="4" to-layer="2123" to-port="1" />
		<edge from-layer="2121" from-port="0" to-layer="2123" to-port="2" />
		<edge from-layer="2122" from-port="0" to-layer="2123" to-port="3" />
		<edge from-layer="2123" from-port="4" to-layer="2124" to-port="0" />
		<edge from-layer="2124" from-port="1" to-layer="2125" to-port="1" />
		<edge from-layer="2125" from-port="2" to-layer="2126" to-port="0" />
		<edge from-layer="2126" from-port="2" to-layer="2127" to-port="2" />
		<edge from-layer="2127" from-port="3" to-layer="2352" to-port="0" />
		<edge from-layer="2127" from-port="3" to-layer="2128" to-port="0" />
		<edge from-layer="2128" from-port="2" to-layer="2129" to-port="0" />
		<edge from-layer="2129" from-port="2" to-layer="2130" to-port="2" />
		<edge from-layer="2130" from-port="3" to-layer="2131" to-port="0" />
		<edge from-layer="2132" from-port="0" to-layer="2168" to-port="0" />
		<edge from-layer="2133" from-port="0" to-layer="2143" to-port="0" />
		<edge from-layer="2134" from-port="0" to-layer="2140" to-port="0" />
		<edge from-layer="2135" from-port="1" to-layer="2138" to-port="0" />
		<edge from-layer="2135" from-port="1" to-layer="2159" to-port="0" />
		<edge from-layer="2135" from-port="1" to-layer="2147" to-port="0" />
		<edge from-layer="2136" from-port="0" to-layer="2138" to-port="1" />
		<edge from-layer="2137" from-port="0" to-layer="2138" to-port="2" />
		<edge from-layer="2138" from-port="3" to-layer="2140" to-port="1" />
		<edge from-layer="2139" from-port="0" to-layer="2140" to-port="2" />
		<edge from-layer="2140" from-port="3" to-layer="2142" to-port="0" />
		<edge from-layer="2141" from-port="0" to-layer="2142" to-port="1" />
		<edge from-layer="2142" from-port="2" to-layer="2171" to-port="0" />
		<edge from-layer="2142" from-port="2" to-layer="2143" to-port="1" />
		<edge from-layer="2143" from-port="2" to-layer="2155" to-port="0" />
		<edge from-layer="2144" from-port="0" to-layer="2149" to-port="0" />
		<edge from-layer="2145" from-port="0" to-layer="2147" to-port="1" />
		<edge from-layer="2146" from-port="0" to-layer="2147" to-port="2" />
		<edge from-layer="2147" from-port="3" to-layer="2149" to-port="1" />
		<edge from-layer="2148" from-port="0" to-layer="2149" to-port="2" />
		<edge from-layer="2149" from-port="3" to-layer="2152" to-port="0" />
		<edge from-layer="2150" from-port="0" to-layer="2152" to-port="1" />
		<edge from-layer="2151" from-port="0" to-layer="2152" to-port="3" />
		<edge from-layer="2152" from-port="4" to-layer="2154" to-port="0" />
		<edge from-layer="2153" from-port="0" to-layer="2154" to-port="1" />
		<edge from-layer="2154" from-port="2" to-layer="2155" to-port="1" />
		<edge from-layer="2154" from-port="2" to-layer="2174" to-port="0" />
		<edge from-layer="2155" from-port="2" to-layer="2162" to-port="0" />
		<edge from-layer="2156" from-port="0" to-layer="2161" to-port="0" />
		<edge from-layer="2157" from-port="0" to-layer="2159" to-port="1" />
		<edge from-layer="2158" from-port="0" to-layer="2159" to-port="2" />
		<edge from-layer="2159" from-port="3" to-layer="2161" to-port="1" />
		<edge from-layer="2160" from-port="0" to-layer="2161" to-port="2" />
		<edge from-layer="2161" from-port="3" to-layer="2162" to-port="1" />
		<edge from-layer="2161" from-port="3" to-layer="2177" to-port="0" />
		<edge from-layer="2162" from-port="2" to-layer="2163" to-port="0" />
		<edge from-layer="2163" from-port="1" to-layer="2165" to-port="0" />
		<edge from-layer="2163" from-port="1" to-layer="2182" to-port="1" />
		<edge from-layer="2163" from-port="1" to-layer="2167" to-port="2" />
		<edge from-layer="2164" from-port="0" to-layer="2165" to-port="1" />
		<edge from-layer="2165" from-port="2" to-layer="2167" to-port="0" />
		<edge from-layer="2166" from-port="0" to-layer="2167" to-port="1" />
		<edge from-layer="2167" from-port="3" to-layer="2177" to-port="1" />
		<edge from-layer="2167" from-port="3" to-layer="2168" to-port="1" />
		<edge from-layer="2167" from-port="3" to-layer="2171" to-port="1" />
		<edge from-layer="2167" from-port="3" to-layer="2174" to-port="1" />
		<edge from-layer="2168" from-port="2" to-layer="2170" to-port="0" />
		<edge from-layer="2169" from-port="0" to-layer="2170" to-port="1" />
		<edge from-layer="2170" from-port="2" to-layer="2180" to-port="0" />
		<edge from-layer="2171" from-port="2" to-layer="2173" to-port="0" />
		<edge from-layer="2172" from-port="0" to-layer="2173" to-port="1" />
		<edge from-layer="2173" from-port="2" to-layer="2180" to-port="1" />
		<edge from-layer="2174" from-port="2" to-layer="2176" to-port="0" />
		<edge from-layer="2175" from-port="0" to-layer="2176" to-port="1" />
		<edge from-layer="2176" from-port="2" to-layer="2180" to-port="2" />
		<edge from-layer="2177" from-port="2" to-layer="2179" to-port="0" />
		<edge from-layer="2178" from-port="0" to-layer="2179" to-port="1" />
		<edge from-layer="2179" from-port="2" to-layer="2180" to-port="3" />
		<edge from-layer="2180" from-port="4" to-layer="2183" to-port="1" />
		<edge from-layer="2181" from-port="2" to-layer="2182" to-port="0" />
		<edge from-layer="2182" from-port="2" to-layer="2183" to-port="2" />
		<edge from-layer="2183" from-port="3" to-layer="2187" to-port="0" />
		<edge from-layer="2183" from-port="3" to-layer="2305" to-port="0" />
		<edge from-layer="2183" from-port="3" to-layer="2234" to-port="0" />
		<edge from-layer="2184" from-port="0" to-layer="2220" to-port="0" />
		<edge from-layer="2185" from-port="0" to-layer="2195" to-port="0" />
		<edge from-layer="2186" from-port="0" to-layer="2192" to-port="0" />
		<edge from-layer="2187" from-port="1" to-layer="2211" to-port="0" />
		<edge from-layer="2187" from-port="1" to-layer="2190" to-port="0" />
		<edge from-layer="2187" from-port="1" to-layer="2199" to-port="0" />
		<edge from-layer="2188" from-port="0" to-layer="2190" to-port="1" />
		<edge from-layer="2189" from-port="0" to-layer="2190" to-port="2" />
		<edge from-layer="2190" from-port="3" to-layer="2192" to-port="1" />
		<edge from-layer="2191" from-port="0" to-layer="2192" to-port="2" />
		<edge from-layer="2192" from-port="3" to-layer="2194" to-port="0" />
		<edge from-layer="2193" from-port="0" to-layer="2194" to-port="1" />
		<edge from-layer="2194" from-port="2" to-layer="2223" to-port="0" />
		<edge from-layer="2194" from-port="2" to-layer="2195" to-port="1" />
		<edge from-layer="2195" from-port="2" to-layer="2207" to-port="0" />
		<edge from-layer="2196" from-port="0" to-layer="2201" to-port="0" />
		<edge from-layer="2197" from-port="0" to-layer="2199" to-port="1" />
		<edge from-layer="2198" from-port="0" to-layer="2199" to-port="2" />
		<edge from-layer="2199" from-port="3" to-layer="2201" to-port="1" />
		<edge from-layer="2200" from-port="0" to-layer="2201" to-port="2" />
		<edge from-layer="2201" from-port="3" to-layer="2204" to-port="0" />
		<edge from-layer="2202" from-port="0" to-layer="2204" to-port="1" />
		<edge from-layer="2203" from-port="0" to-layer="2204" to-port="3" />
		<edge from-layer="2204" from-port="4" to-layer="2206" to-port="0" />
		<edge from-layer="2205" from-port="0" to-layer="2206" to-port="1" />
		<edge from-layer="2206" from-port="2" to-layer="2207" to-port="1" />
		<edge from-layer="2206" from-port="2" to-layer="2226" to-port="0" />
		<edge from-layer="2207" from-port="2" to-layer="2214" to-port="0" />
		<edge from-layer="2208" from-port="0" to-layer="2213" to-port="0" />
		<edge from-layer="2209" from-port="0" to-layer="2211" to-port="1" />
		<edge from-layer="2210" from-port="0" to-layer="2211" to-port="2" />
		<edge from-layer="2211" from-port="3" to-layer="2213" to-port="1" />
		<edge from-layer="2212" from-port="0" to-layer="2213" to-port="2" />
		<edge from-layer="2213" from-port="3" to-layer="2229" to-port="0" />
		<edge from-layer="2213" from-port="3" to-layer="2214" to-port="1" />
		<edge from-layer="2214" from-port="2" to-layer="2215" to-port="0" />
		<edge from-layer="2215" from-port="1" to-layer="2304" to-port="1" />
		<edge from-layer="2215" from-port="1" to-layer="2219" to-port="2" />
		<edge from-layer="2215" from-port="1" to-layer="2217" to-port="0" />
		<edge from-layer="2216" from-port="0" to-layer="2217" to-port="1" />
		<edge from-layer="2217" from-port="2" to-layer="2219" to-port="0" />
		<edge from-layer="2218" from-port="0" to-layer="2219" to-port="1" />
		<edge from-layer="2219" from-port="3" to-layer="2226" to-port="1" />
		<edge from-layer="2219" from-port="3" to-layer="2229" to-port="1" />
		<edge from-layer="2219" from-port="3" to-layer="2220" to-port="1" />
		<edge from-layer="2219" from-port="3" to-layer="2223" to-port="1" />
		<edge from-layer="2220" from-port="2" to-layer="2222" to-port="0" />
		<edge from-layer="2221" from-port="0" to-layer="2222" to-port="1" />
		<edge from-layer="2222" from-port="2" to-layer="2232" to-port="0" />
		<edge from-layer="2223" from-port="2" to-layer="2225" to-port="0" />
		<edge from-layer="2224" from-port="0" to-layer="2225" to-port="1" />
		<edge from-layer="2225" from-port="2" to-layer="2232" to-port="1" />
		<edge from-layer="2226" from-port="2" to-layer="2228" to-port="0" />
		<edge from-layer="2227" from-port="0" to-layer="2228" to-port="1" />
		<edge from-layer="2228" from-port="2" to-layer="2232" to-port="2" />
		<edge from-layer="2229" from-port="2" to-layer="2231" to-port="0" />
		<edge from-layer="2230" from-port="0" to-layer="2231" to-port="1" />
		<edge from-layer="2231" from-port="2" to-layer="2232" to-port="3" />
		<edge from-layer="2232" from-port="4" to-layer="2305" to-port="1" />
		<edge from-layer="2233" from-port="0" to-layer="2234" to-port="2" />
		<edge from-layer="2234" from-port="3" to-layer="2237" to-port="0" />
		<edge from-layer="2235" from-port="0" to-layer="2237" to-port="1" />
		<edge from-layer="2236" from-port="0" to-layer="2237" to-port="3" />
		<edge from-layer="2237" from-port="4" to-layer="2239" to-port="0" />
		<edge from-layer="2237" from-port="4" to-layer="2302" to-port="0" />
		<edge from-layer="2237" from-port="4" to-layer="2298" to-port="0" />
		<edge from-layer="2238" from-port="0" to-layer="2244" to-port="0" />
		<edge from-layer="2239" from-port="1" to-layer="2250" to-port="0" />
		<edge from-layer="2239" from-port="1" to-layer="2242" to-port="0" />
		<edge from-layer="2239" from-port="1" to-layer="2303" to-port="1" />
		<edge from-layer="2239" from-port="1" to-layer="2273" to-port="0" />
		<edge from-layer="2240" from-port="0" to-layer="2242" to-port="1" />
		<edge from-layer="2241" from-port="0" to-layer="2242" to-port="2" />
		<edge from-layer="2242" from-port="3" to-layer="2244" to-port="1" />
		<edge from-layer="2243" from-port="0" to-layer="2244" to-port="2" />
		<edge from-layer="2244" from-port="3" to-layer="2246" to-port="0" />
		<edge from-layer="2245" from-port="0" to-layer="2246" to-port="1" />
		<edge from-layer="2246" from-port="2" to-layer="2282" to-port="0" />
		<edge from-layer="2246" from-port="2" to-layer="2269" to-port="0" />
		<edge from-layer="2247" from-port="0" to-layer="2252" to-port="0" />
		<edge from-layer="2248" from-port="0" to-layer="2250" to-port="1" />
		<edge from-layer="2249" from-port="0" to-layer="2250" to-port="2" />
		<edge from-layer="2250" from-port="3" to-layer="2252" to-port="1" />
		<edge from-layer="2251" from-port="0" to-layer="2252" to-port="2" />
		<edge from-layer="2252" from-port="3" to-layer="2266" to-port="0" />
		<edge from-layer="2253" from-port="0" to-layer="2254" to-port="0" />
		<edge from-layer="2254" from-port="1" to-layer="2255" to-port="1" />
		<edge from-layer="2255" from-port="2" to-layer="2256" to-port="0" />
		<edge from-layer="2255" from-port="2" to-layer="2300" to-port="0" />
		<edge from-layer="2256" from-port="1" to-layer="2259" to-port="0" />
		<edge from-layer="2257" from-port="0" to-layer="2259" to-port="1" />
		<edge from-layer="2258" from-port="0" to-layer="2259" to-port="2" />
		<edge from-layer="2259" from-port="3" to-layer="2261" to-port="0" />
		<edge from-layer="2260" from-port="0" to-layer="2261" to-port="1" />
		<edge from-layer="2261" from-port="2" to-layer="2263" to-port="0" />
		<edge from-layer="2262" from-port="0" to-layer="2263" to-port="1" />
		<edge from-layer="2263" from-port="2" to-layer="2266" to-port="1" />
		<edge from-layer="2263" from-port="2" to-layer="2295" to-port="2" />
		<edge from-layer="2264" from-port="0" to-layer="2266" to-port="2" />
		<edge from-layer="2265" from-port="0" to-layer="2266" to-port="3" />
		<edge from-layer="2266" from-port="4" to-layer="2268" to-port="0" />
		<edge from-layer="2267" from-port="0" to-layer="2268" to-port="1" />
		<edge from-layer="2268" from-port="2" to-layer="2269" to-port="1" />
		<edge from-layer="2268" from-port="2" to-layer="2285" to-port="0" />
		<edge from-layer="2269" from-port="2" to-layer="2276" to-port="0" />
		<edge from-layer="2270" from-port="0" to-layer="2275" to-port="0" />
		<edge from-layer="2271" from-port="0" to-layer="2273" to-port="1" />
		<edge from-layer="2272" from-port="0" to-layer="2273" to-port="2" />
		<edge from-layer="2273" from-port="3" to-layer="2275" to-port="1" />
		<edge from-layer="2274" from-port="0" to-layer="2275" to-port="2" />
		<edge from-layer="2275" from-port="3" to-layer="2288" to-port="0" />
		<edge from-layer="2275" from-port="3" to-layer="2276" to-port="1" />
		<edge from-layer="2276" from-port="2" to-layer="2277" to-port="0" />
		<edge from-layer="2277" from-port="1" to-layer="2279" to-port="0" />
		<edge from-layer="2277" from-port="1" to-layer="2301" to-port="1" />
		<edge from-layer="2277" from-port="1" to-layer="2281" to-port="2" />
		<edge from-layer="2278" from-port="0" to-layer="2279" to-port="1" />
		<edge from-layer="2279" from-port="2" to-layer="2281" to-port="0" />
		<edge from-layer="2280" from-port="0" to-layer="2281" to-port="1" />
		<edge from-layer="2281" from-port="3" to-layer="2282" to-port="1" />
		<edge from-layer="2281" from-port="3" to-layer="2288" to-port="1" />
		<edge from-layer="2281" from-port="3" to-layer="2285" to-port="1" />
		<edge from-layer="2282" from-port="2" to-layer="2284" to-port="0" />
		<edge from-layer="2283" from-port="0" to-layer="2284" to-port="1" />
		<edge from-layer="2284" from-port="2" to-layer="2291" to-port="0" />
		<edge from-layer="2285" from-port="2" to-layer="2287" to-port="0" />
		<edge from-layer="2286" from-port="0" to-layer="2287" to-port="1" />
		<edge from-layer="2287" from-port="2" to-layer="2291" to-port="1" />
		<edge from-layer="2288" from-port="2" to-layer="2290" to-port="0" />
		<edge from-layer="2289" from-port="0" to-layer="2290" to-port="1" />
		<edge from-layer="2290" from-port="2" to-layer="2291" to-port="2" />
		<edge from-layer="2291" from-port="3" to-layer="2302" to-port="1" />
		<edge from-layer="2292" from-port="0" to-layer="2295" to-port="0" />
		<edge from-layer="2293" from-port="0" to-layer="2295" to-port="1" />
		<edge from-layer="2294" from-port="0" to-layer="2295" to-port="3" />
		<edge from-layer="2295" from-port="4" to-layer="2298" to-port="1" />
		<edge from-layer="2296" from-port="0" to-layer="2298" to-port="2" />
		<edge from-layer="2297" from-port="0" to-layer="2298" to-port="3" />
		<edge from-layer="2298" from-port="4" to-layer="2299" to-port="0" />
		<edge from-layer="2299" from-port="1" to-layer="2300" to-port="1" />
		<edge from-layer="2300" from-port="2" to-layer="2301" to-port="0" />
		<edge from-layer="2301" from-port="2" to-layer="2302" to-port="2" />
		<edge from-layer="2302" from-port="3" to-layer="2331" to-port="0" />
		<edge from-layer="2302" from-port="3" to-layer="2303" to-port="0" />
		<edge from-layer="2303" from-port="2" to-layer="2304" to-port="0" />
		<edge from-layer="2304" from-port="2" to-layer="2305" to-port="2" />
		<edge from-layer="2305" from-port="3" to-layer="2306" to-port="0" />
		<edge from-layer="2307" from-port="0" to-layer="2308" to-port="0" />
		<edge from-layer="2308" from-port="1" to-layer="2369" to-port="0" />
		<edge from-layer="2309" from-port="0" to-layer="2310" to-port="0" />
		<edge from-layer="2310" from-port="1" to-layer="2314" to-port="0" />
		<edge from-layer="2311" from-port="0" to-layer="2312" to-port="0" />
		<edge from-layer="2312" from-port="1" to-layer="2313" to-port="1" />
		<edge from-layer="2313" from-port="2" to-layer="2314" to-port="1" />
		<edge from-layer="2314" from-port="2" to-layer="2316" to-port="0" />
		<edge from-layer="2314" from-port="2" to-layer="2319" to-port="0" />
		<edge from-layer="2315" from-port="0" to-layer="2316" to-port="1" />
		<edge from-layer="2316" from-port="2" to-layer="2318" to-port="0" />
		<edge from-layer="2317" from-port="0" to-layer="2318" to-port="1" />
		<edge from-layer="2318" from-port="2" to-layer="2329" to-port="0" />
		<edge from-layer="2319" from-port="1" to-layer="2322" to-port="0" />
		<edge from-layer="2319" from-port="1" to-layer="2339" to-port="0" />
		<edge from-layer="2320" from-port="0" to-layer="2322" to-port="1" />
		<edge from-layer="2321" from-port="0" to-layer="2322" to-port="2" />
		<edge from-layer="2322" from-port="3" to-layer="2324" to-port="0" />
		<edge from-layer="2323" from-port="0" to-layer="2324" to-port="1" />
		<edge from-layer="2324" from-port="2" to-layer="2325" to-port="0" />
		<edge from-layer="2325" from-port="1" to-layer="2328" to-port="0" />
		<edge from-layer="2326" from-port="0" to-layer="2327" to-port="0" />
		<edge from-layer="2327" from-port="1" to-layer="2328" to-port="1" />
		<edge from-layer="2328" from-port="2" to-layer="2329" to-port="1" />
		<edge from-layer="2328" from-port="2" to-layer="2334" to-port="1" />
		<edge from-layer="2329" from-port="2" to-layer="2335" to-port="0" />
		<edge from-layer="2330" from-port="0" to-layer="2331" to-port="1" />
		<edge from-layer="2331" from-port="2" to-layer="2333" to-port="0" />
		<edge from-layer="2332" from-port="0" to-layer="2333" to-port="1" />
		<edge from-layer="2333" from-port="2" to-layer="2334" to-port="0" />
		<edge from-layer="2334" from-port="2" to-layer="2335" to-port="1" />
		<edge from-layer="2335" from-port="2" to-layer="2349" to-port="0" />
		<edge from-layer="2336" from-port="0" to-layer="2341" to-port="1" />
		<edge from-layer="2337" from-port="0" to-layer="2339" to-port="1" />
		<edge from-layer="2338" from-port="0" to-layer="2339" to-port="2" />
		<edge from-layer="2339" from-port="3" to-layer="2341" to-port="2" />
		<edge from-layer="2339" from-port="3" to-layer="2346" to-port="2" />
		<edge from-layer="2340" from-port="0" to-layer="2341" to-port="3" />
		<edge from-layer="2341" from-port="4" to-layer="2348" to-port="0" />
		<edge from-layer="2342" from-port="0" to-layer="2348" to-port="1" />
		<edge from-layer="2343" from-port="0" to-layer="2346" to-port="0" />
		<edge from-layer="2344" from-port="0" to-layer="2346" to-port="1" />
		<edge from-layer="2345" from-port="0" to-layer="2346" to-port="3" />
		<edge from-layer="2346" from-port="4" to-layer="2348" to-port="2" />
		<edge from-layer="2347" from-port="0" to-layer="2348" to-port="3" />
		<edge from-layer="2348" from-port="4" to-layer="2349" to-port="1" />
		<edge from-layer="2349" from-port="2" to-layer="2350" to-port="0" />
		<edge from-layer="2350" from-port="1" to-layer="2355" to-port="0" />
		<edge from-layer="2351" from-port="0" to-layer="2352" to-port="1" />
		<edge from-layer="2352" from-port="2" to-layer="2354" to-port="0" />
		<edge from-layer="2353" from-port="0" to-layer="2354" to-port="1" />
		<edge from-layer="2354" from-port="2" to-layer="2355" to-port="1" />
		<edge from-layer="2355" from-port="2" to-layer="2357" to-port="0" />
		<edge from-layer="2356" from-port="0" to-layer="2357" to-port="1" />
		<edge from-layer="2357" from-port="2" to-layer="2365" to-port="0" />
		<edge from-layer="2357" from-port="2" to-layer="2358" to-port="0" />
		<edge from-layer="2358" from-port="1" to-layer="2362" to-port="0" />
		<edge from-layer="2359" from-port="0" to-layer="2362" to-port="1" />
		<edge from-layer="2360" from-port="0" to-layer="2362" to-port="2" />
		<edge from-layer="2361" from-port="0" to-layer="2362" to-port="3" />
		<edge from-layer="2362" from-port="4" to-layer="2364" to-port="0" />
		<edge from-layer="2363" from-port="0" to-layer="2364" to-port="1" />
		<edge from-layer="2364" from-port="2" to-layer="2365" to-port="1" />
		<edge from-layer="2365" from-port="2" to-layer="2368" to-port="0" />
		<edge from-layer="2366" from-port="0" to-layer="2367" to-port="0" />
		<edge from-layer="2367" from-port="1" to-layer="2368" to-port="1" />
		<edge from-layer="2368" from-port="2" to-layer="2369" to-port="1" />
		<edge from-layer="2369" from-port="2" to-layer="2370" to-port="1" />
		<edge from-layer="2370" from-port="2" to-layer="2376" to-port="0" />
		<edge from-layer="2370" from-port="2" to-layer="2432" to-port="0" />
		<edge from-layer="2371" from-port="0" to-layer="2372" to-port="0" />
		<edge from-layer="2372" from-port="1" to-layer="2431" to-port="0" />
		<edge from-layer="2373" from-port="0" to-layer="2374" to-port="0" />
		<edge from-layer="2374" from-port="1" to-layer="2386" to-port="0" />
		<edge from-layer="2375" from-port="0" to-layer="2376" to-port="1" />
		<edge from-layer="2376" from-port="2" to-layer="2379" to-port="0" />
		<edge from-layer="2377" from-port="0" to-layer="2378" to-port="0" />
		<edge from-layer="2378" from-port="1" to-layer="2379" to-port="1" />
		<edge from-layer="2379" from-port="2" to-layer="2382" to-port="0" />
		<edge from-layer="2380" from-port="0" to-layer="2381" to-port="0" />
		<edge from-layer="2381" from-port="1" to-layer="2382" to-port="1" />
		<edge from-layer="2382" from-port="2" to-layer="2385" to-port="0" />
		<edge from-layer="2383" from-port="0" to-layer="2384" to-port="0" />
		<edge from-layer="2384" from-port="1" to-layer="2385" to-port="1" />
		<edge from-layer="2385" from-port="2" to-layer="2386" to-port="1" />
		<edge from-layer="2386" from-port="2" to-layer="2388" to-port="0" />
		<edge from-layer="2386" from-port="2" to-layer="2391" to-port="0" />
		<edge from-layer="2387" from-port="0" to-layer="2388" to-port="1" />
		<edge from-layer="2388" from-port="2" to-layer="2390" to-port="0" />
		<edge from-layer="2389" from-port="0" to-layer="2390" to-port="1" />
		<edge from-layer="2390" from-port="2" to-layer="2401" to-port="0" />
		<edge from-layer="2391" from-port="1" to-layer="2394" to-port="0" />
		<edge from-layer="2392" from-port="0" to-layer="2394" to-port="1" />
		<edge from-layer="2393" from-port="0" to-layer="2394" to-port="2" />
		<edge from-layer="2394" from-port="3" to-layer="2396" to-port="0" />
		<edge from-layer="2395" from-port="0" to-layer="2396" to-port="1" />
		<edge from-layer="2396" from-port="2" to-layer="2397" to-port="0" />
		<edge from-layer="2397" from-port="1" to-layer="2400" to-port="0" />
		<edge from-layer="2398" from-port="0" to-layer="2399" to-port="0" />
		<edge from-layer="2399" from-port="1" to-layer="2400" to-port="1" />
		<edge from-layer="2400" from-port="2" to-layer="2401" to-port="1" />
		<edge from-layer="2400" from-port="2" to-layer="2408" to-port="1" />
		<edge from-layer="2401" from-port="2" to-layer="2409" to-port="0" />
		<edge from-layer="2402" from-port="0" to-layer="2403" to-port="2" />
		<edge from-layer="2403" from-port="3" to-layer="2405" to-port="0" />
		<edge from-layer="2404" from-port="0" to-layer="2405" to-port="1" />
		<edge from-layer="2405" from-port="2" to-layer="2407" to-port="0" />
		<edge from-layer="2406" from-port="0" to-layer="2407" to-port="1" />
		<edge from-layer="2407" from-port="2" to-layer="2408" to-port="0" />
		<edge from-layer="2408" from-port="2" to-layer="2409" to-port="1" />
		<edge from-layer="2409" from-port="2" to-layer="2410" to-port="0" />
		<edge from-layer="2410" from-port="1" to-layer="2417" to-port="0" />
		<edge from-layer="2411" from-port="0" to-layer="2412" to-port="2" />
		<edge from-layer="2412" from-port="3" to-layer="2414" to-port="0" />
		<edge from-layer="2413" from-port="0" to-layer="2414" to-port="1" />
		<edge from-layer="2414" from-port="2" to-layer="2416" to-port="0" />
		<edge from-layer="2415" from-port="0" to-layer="2416" to-port="1" />
		<edge from-layer="2416" from-port="2" to-layer="2417" to-port="1" />
		<edge from-layer="2417" from-port="2" to-layer="2419" to-port="0" />
		<edge from-layer="2418" from-port="0" to-layer="2419" to-port="1" />
		<edge from-layer="2419" from-port="2" to-layer="2420" to-port="0" />
		<edge from-layer="2419" from-port="2" to-layer="2427" to-port="0" />
		<edge from-layer="2420" from-port="1" to-layer="2424" to-port="0" />
		<edge from-layer="2421" from-port="0" to-layer="2424" to-port="1" />
		<edge from-layer="2422" from-port="0" to-layer="2424" to-port="2" />
		<edge from-layer="2423" from-port="0" to-layer="2424" to-port="3" />
		<edge from-layer="2424" from-port="4" to-layer="2426" to-port="0" />
		<edge from-layer="2425" from-port="0" to-layer="2426" to-port="1" />
		<edge from-layer="2426" from-port="2" to-layer="2427" to-port="1" />
		<edge from-layer="2427" from-port="2" to-layer="2430" to-port="0" />
		<edge from-layer="2428" from-port="0" to-layer="2429" to-port="0" />
		<edge from-layer="2429" from-port="1" to-layer="2430" to-port="1" />
		<edge from-layer="2430" from-port="2" to-layer="2431" to-port="1" />
		<edge from-layer="2431" from-port="2" to-layer="2432" to-port="1" />
		<edge from-layer="2432" from-port="2" to-layer="2438" to-port="0" />
		<edge from-layer="2432" from-port="2" to-layer="2454" to-port="0" />
		<edge from-layer="2433" from-port="0" to-layer="2434" to-port="0" />
		<edge from-layer="2434" from-port="1" to-layer="2453" to-port="0" />
		<edge from-layer="2435" from-port="0" to-layer="2436" to-port="0" />
		<edge from-layer="2436" from-port="1" to-layer="2448" to-port="0" />
		<edge from-layer="2437" from-port="0" to-layer="2438" to-port="1" />
		<edge from-layer="2438" from-port="2" to-layer="2441" to-port="0" />
		<edge from-layer="2439" from-port="0" to-layer="2440" to-port="0" />
		<edge from-layer="2440" from-port="1" to-layer="2441" to-port="1" />
		<edge from-layer="2441" from-port="2" to-layer="2444" to-port="0" />
		<edge from-layer="2442" from-port="0" to-layer="2443" to-port="0" />
		<edge from-layer="2443" from-port="1" to-layer="2444" to-port="1" />
		<edge from-layer="2444" from-port="2" to-layer="2447" to-port="0" />
		<edge from-layer="2445" from-port="0" to-layer="2446" to-port="0" />
		<edge from-layer="2446" from-port="1" to-layer="2447" to-port="1" />
		<edge from-layer="2447" from-port="2" to-layer="2448" to-port="1" />
		<edge from-layer="2448" from-port="2" to-layer="2449" to-port="0" />
		<edge from-layer="2449" from-port="1" to-layer="2452" to-port="0" />
		<edge from-layer="2450" from-port="0" to-layer="2451" to-port="0" />
		<edge from-layer="2451" from-port="1" to-layer="2452" to-port="1" />
		<edge from-layer="2452" from-port="2" to-layer="2453" to-port="1" />
		<edge from-layer="2453" from-port="2" to-layer="2454" to-port="1" />
		<edge from-layer="2454" from-port="2" to-layer="2456" to-port="0" />
		<edge from-layer="2455" from-port="0" to-layer="2456" to-port="1" />
		<edge from-layer="2456" from-port="2" to-layer="2459" to-port="0" />
		<edge from-layer="2457" from-port="0" to-layer="2458" to-port="0" />
		<edge from-layer="2458" from-port="1" to-layer="2459" to-port="1" />
		<edge from-layer="2459" from-port="2" to-layer="2462" to-port="0" />
		<edge from-layer="2460" from-port="0" to-layer="2461" to-port="0" />
		<edge from-layer="2461" from-port="1" to-layer="2462" to-port="1" />
		<edge from-layer="2462" from-port="2" to-layer="2463" to-port="1" />
		<edge from-layer="2463" from-port="2" to-layer="2465" to-port="0" />
		<edge from-layer="2464" from-port="0" to-layer="2465" to-port="1" />
		<edge from-layer="2465" from-port="2" to-layer="2466" to-port="0" />
	</edges>
	<rt_info>
		<MO_version value="2024.1.0-15008-f4afc983258-releases/2024/1" />
		<Runtime_version value="2024.1.0-15008-f4afc983258-releases/2024/1" />
		<conversion_parameters>
			<framework value="onnx" />
			<input_model value="DIR\base-decoder.onnx" />
			<is_python_api_used value="False" />
			<output_dir value="DIR" />
		</conversion_parameters>
		<legacy_frontend value="False" />
	</rt_info>
</net>
